onnx/pensieve_small_parallel.onnx (onnx, 423613 bytes, 16 tensors)

bw f4 [128, 1]
-1.3382279 -0.2756275 0.051321387 -1.2052233 -0.0558658 0.42759746 1.2707806 1.0486424
0.19620238 0.69390756 0.29963678 0.71203136 0.1486193 0.32598853 -0.21889508 -0.3635881
0.23850203 0.6154755 -0.43700218 -0.7594314 -0.6020948 -0.8474529 -0.7375531 -0.6514139
-0.09000361 0.796733 -0.7152207 0.96350664 -0.23136906 -0.67474926 1.0508456 0.95311743
-0.68766713 0.9627603 0.26926708 0.5815752 0.9415517 0.6648335 -0.539247 -1.1152232
-0.9195576 -0.192824 -0.7704657 0.8192688 0.52933186 0.47572383 -1.0089521 -0.2916318
0.40113112 -0.9209471 -0.27780128 0.5607945 -0.6623019 -0.08650578 0.052591443 0.573287
0.3968654 0.13735779 0.76660514 -0.0083014965 0.9826988 0.033914547 -0.18737341 -0.36143136
-0.594058 -0.6033387 -0.027020784 0.8181424 -0.9223525 -0.024051905 -0.68703115 -0.92414427
0.45560837 -1.1429753 -0.14066067 -0.36489952 0.849323 -0.377573 -0.99128056 -1.0310328
-0.5336969 -0.9156239 -0.9271841 0.1339581 0.20101655 -0.37128592 -0.51624036 0.39910838
0.5362187 -0.5812057 0.6223728 -0.8184307 0.2767505 -0.89398897 0.88849616 -1.0069515
1.0734652 -0.70640135 -0.98170733 -0.73911285 0.20648746 -0.55391306 -0.13946295 0.5437335
-0.96340513 0.93222857 -1.0110071 -0.9723354 -0.17321265 -1.1392602 -0.33345354 -0.49993885
0.24945724 -0.7553568 -1.0027142 -0.7467793 -0.9982145 0.7768606 -0.95059335 -0.17590332
0.6239766 0.32697552 -0.45575967 1.0097089 -0.98092866 0.83332753 -0.8547816 0.9535718
00000000: 0d4b abbf 0c1f 8dbe 6036 523d c244 9abf
00000010: 89d3 64bd 0eee da3e f0a8 a23f ea39 863f
00000020: 47e9 483e eda3 313f fe69 993e b047 363f
00000030: a82f 183e f8e7 a63e 0826 60be 3828 babe
00000040: e039 743e cd8f 1d3f c0be dfbe 196a 42bf
00000050: e322 1abf acf2 58bf 48d0 3cbf 10c3 26bf
00000060: d053 b8bd b2f6 4b3f b418 37bf 5fa8 763f
00000070: 03ec 6cbe 5ebc 2cbf 1c82 863f 81ff 733f
00000080: f40a 30bf 7677 763f 60dd 893e 1de2 143f
00000090: 8809 713f 8732 2a3f 170c 0abf a2bf 8ebf
000000a0: 2068 6bbf a873 45be 3d3d 45bf 9abb 513f
000000b0: 4b82 073f 1392 f33e 5825 81bf c350 95be
000000c0: 0f61 cd3e 30c3 6bbf f83b 8ebe 3a90 0f3f
000000d0: 9e8c 29bf f129 b1bd 206a 573d f0c2 123f
000000e0: f131 cb3e 85a7 0c3e 3c40 443f 0003 08bc
000000f0: 2692 7b3f fbe9 0a3d d1de 3fbe 880d b9be
00000100: 2f14 18bf 6874 1abf b15a ddbc c871 513f
00000110: 4b1f 6cbf 8008 c5bc 46e1 2fbf b894 6cbf
00000120: 8045 e93e 044d 92bf 5a09 10be 1cd4 babe
00000130: 3b6d 593f 4051 c1be 90c4 7dbf e2f8 83bf
00000140: 5ca0 08bf 5466 6abf f05b 6dbf 502c 093e
00000150: 48d7 4d3e 3019 bebe 5428 04bf ef57 cc3e
00000160: a145 093f e6c9 14bf d353 1f3f ad84 51bf
00000170: 3eb2 8d3e 76dc 64bf 7c74 633f c9e3 80bf
00000180: 4f67 893f b8d6 34bf 2c51 7bbf 8036 3dbf
00000190: 7371 533e 3fcd 0dbf 60cf 0ebe 1e32 0b3f
000001a0: b8a1 76bf 88a6 6e3f ae68 81bf f9ea 78bf
000001b0: a85e 31be 47d3 91bf 6cba aabe fcf7 ffbe
000001c0: b871 7f3e 105f 41bf f058 80bf ee2c 3fbf
000001d0: fc8a 7fbf 56e0 463f 165a 73bf 0020 34be
000001e0: eebc 1f3f 5669 a73e 5559 e9be 243e 813f
000001f0: 241e 7bbf f454 553f f8d2 5abf 481d 743f

video_size f4 [128]
0.6849964 -0.26284075 -0.613896 0.98314184 0.88125986 0.81406 0.112378374 0.26316512
0.17813778 -0.35486928 0.29942217 0.3255423 -0.3572049 -0.5727196 -0.80894995 -0.088164926
-0.63731766 0.8494648 -0.6700566 0.9454779 0.45979345 -0.17957306 -0.57509136 -0.7531158
-0.6580714 -0.8775574 0.89801955 -0.9636392 0.32577273 1.0078882 0.076464646 -0.6825575
0.611384 0.1569336 -0.4780693 1.0925573 0.429929 0.10400743 0.63181096 0.7664144
0.35144392 -0.2977779 1.030398 0.124338984 0.402729 0.18226433 0.42636985 0.88978076
0.52193993 0.97930574 -0.1035099 0.77999353 0.9988366 0.19057935 -0.3623085 1.0956101
0.15545666 0.7183643 0.47666594 -0.59099925 0.21593615 0.74958116 1.0927404 -0.0042277575
0.9619865 -0.7663914 0.35188186 -0.94578075 0.96717286 -0.71422315 -0.1676557 -0.69157004
-0.6679379 0.44349834 0.58706915 -0.2400608 -0.62083846 0.15593725 -0.4369787 0.8010727
-0.257766 -0.6284871 -0.026013851 -0.5496136 -0.685537 -0.6308594 0.03197658 0.7782106
0.12660624 -0.42256522 -0.48527065 0.37080562 0.38471648 1.0023185 0.3668817 0.74986565
0.107456416 -0.866678 -0.402583 -0.55880916 0.42646217 0.64478457 -0.04927206 -0.36725077
-0.96199536 0.3749366 0.745721 0.7504725 -0.79260993 0.7229522 -0.32951236 -0.18592358
-0.11529662 -0.12714183 0.3400239 0.28531113 -0.6642349 0.38027018 0.041937113 0.51710564
-0.5594132 0.73816264 0.40092042 0.07771903 -0.969921 -0.86196077 -0.42033303 -0.51580936
00000000: ed5b 2f3f 1093 86be 4a28 1dbf 2faf 7b3f
00000010: 3f9a 613f 3c66 503f a226 e63d 94bd 863e
00000020: c069 363e 6db1 b5be dd4d 993e 7bad a63e
00000030: 90e3 b6be c09d 12bf 5817 4fbf d08f b4bd
00000040: 4027 23bf 8676 593f d488 2bbf d70a 723f
00000050: 0c6a eb3e 00e2 37be 3039 13bf 32cc 40bf
00000060: 5e77 28bf 9aa7 60bf 9ce4 653f 0fb1 76bf
00000070: afcb a63e 7b02 813f 7f99 9c3d 17bc 2ebf
00000080: a983 1c3f 34b3 203e 80c5 f4be ebd8 8b3f
00000090: a71f dc3e d901 d53d 5dbe 213f bc33 443f
000000a0: 75f0 b33e 5876 98be 15e4 833f 70a5 fe3d
000000b0: 7f32 ce3e 80a3 3a3e 264d da3e acc8 633f
000000c0: db9d 053f c8b3 7a3f 00fd d3bd a8ad 473f
000000d0: c1b3 7f3f 3c27 433e 8080 b9be f43c 8c3f
000000e0: 0830 1f3e b9e6 373f 8f0d f43e ba4b 17bf
000000f0: 5e1e 5d3e 8de4 3f3f ebde 8b3f 0089 8abb
00000100: bf44 763f 3a32 44bf dc29 b43e b01e 72bf
00000110: a498 773f 54d7 36bf f0ad 2bbe bc0a 31bf
00000120: fafd 2abf 3712 e33e 2a4a 163f 80d2 75be
00000130: 45ef 1ebf 04ae 1f3e acbb dfbe 1a13 4d3f
00000140: e8f9 83be 88e4 20bf 001b d5bc 7ab3 0cbf
00000150: 5a7f 2fbf 0080 21bf e0f9 023d cf38 473f
00000160: 11a5 013e 785a d8be 6575 f8be 3cda bd3e
00000170: 8ff9 c43e f94b 803f ebd7 bb3e 32f7 3f3f
00000180: 1c12 dc3d 9cde 5dbf 5c1f cebe 1e0e 0fbf
00000190: 4059 da3e 9a10 253f 80d1 49bd 4b08 bcbe
000001a0: 5445 76bf b1f7 bf3e 92e7 3e3f f71e 403f
000001b0: 7ce8 4abf 6513 393f d8b5 a8be c062 3ebe
000001c0: a220 ecbd 7831 02be 9d17 ae3e 4d14 923e
000001d0: 4c0b 2abf c6b2 c23e 40c6 2b3d 0961 043f
000001e0: b435 0fbf 3af8 3c3f 7145 cd3e 282b 9f3d
000001f0: be4c 78bf 76a9 5cbf e435 d7be 150c 04bf

linear1.weight f4 [128, 1]
-0.53545415 0.043501496 0.016048431 -0.83003676 0.92967975 1.241421 -0.82102394 -0.73672044
-0.5461701 -0.17136405 -0.20924017 0.36564505 -0.9660375 -0.053858496 0.09010482 1.0882348
-0.2709428 -0.29593325 -0.57862395 1.0906403 0.81711537 -0.6767101 1.1189815 -0.6800409
0.9303976 1.1985618 -0.50221795 0.6068662 -0.704224 1.1063036 -0.64081115 0.053290725
0.7795937 -0.5651671 0.43908662 -0.39230108 0.6970997 0.08157945 -0.14459264 -0.47276437
-0.15519206 0.5008314 -0.2600286 -0.6999748 1.220669 1.3202485 0.39715284 0.9565753
0.7420535 1.1380928 -0.7105608 0.24382584 -0.22244668 0.5383878 1.0897294 -0.25732827
0.80552506 -0.7650027 -0.5565759 0.6107565 0.85665095 0.96707785 1.2214373 -0.4833262
0.6144177 1.1552672 0.86101174 -0.531126 -0.3636242 -0.480725 0.78159535 -0.7917955
0.53048855 -0.20937037 -0.30909812 1.0364932 -0.5353769 -0.56935674 1.2827576 -0.40857896
0.858083 -0.67509353 0.13218966 0.9194759 -0.46031666 -0.7367054 -0.473929 -0.54462194
-0.5254003 -0.86735284 -0.16978645 0.16322741 0.56755453 0.33008155 -0.60730356 0.4032545
-0.43764544 0.43093148 -0.24211907 -0.8697669 1.2373236 1.3272575 -0.93891394 1.39325
0.7180697 -0.5902804 -0.9959363 -0.81043965 0.8690378 0.92756724 -0.8321315 0.9332527
-0.18192124 -0.03190422 1.0347872 -0.6417316 -0.63067496 -0.9687449 -0.58843136 -0.2560211
-0.97448564 -0.071774006 0.58953214 -0.26372322 1.4150455 -0.80773795 1.2976195 -0.8882654
00000000: 8613 09bf a02e 323d 0078 833c 4a7d 54bf
00000010: 7eff 6d3f e2e6 9e3f a02e 52bf b699 3cbf
00000020: ced1 0bbf 0f7a 2fbe 0e43 56be d435 bb3e
00000030: 3c4e 77bf ba9a 5cbd e088 b83d 474b 8b3f
00000040: 04b9 8abe 9084 97be b320 14bf 1a9a 8b3f
00000050: 792e 513f e03c 2dbf c93a 8f3f 2917 2ebf
00000060: 8a2e 6e3f 796a 993f 5b91 00bf 955b 1b3f
00000070: 0648 34bf 5b9b 8d3f 330c 24bf 6047 5a3d
00000080: 7493 473f cbae 10bf f6cf e03e b0db c8be
00000090: 2075 323f 2013 a73d 1810 14be 2c0e f2be
000000a0: abea 1ebe 7d36 003f 7822 85be 8c31 33bf
000000b0: e23e 9c3f e7fd a83f 9e57 cb3e 1ee2 743f
000000c0: 38f7 3d3f 06ad 913f 50e7 35bf 7bad 793e
000000d0: 10c9 63be c8d3 093f 417c 8b3f 88c0 83be
000000e0: e436 4e3f 38d7 43bf c27b 0ebf 8a5a 1c3f
000000f0: 7a4d 5b3f 6a92 773f 0f58 9c3f 8876 f7be
00000100: 7a4a 1d3f ccdf 933f 446b 5c3f e0f7 07bf
00000110: f32c babe 9621 f6be a216 483f 1cb3 4abf
00000120: 19ce 073f 3065 56be 1c42 9ebe cfab 843f
00000130: 760e 09bf 5dc1 11bf 6731 a43f 4331 d1be
00000140: 54ab 5b3f eed2 2cbf ba5c 073e c662 6b3f
00000150: a0ae ebbe ba98 3cbf d2a6 f2be 586c 0bbf
00000160: a280 06bf d60a 5ebf 80dc 2dbe 1625 273e
00000170: 414b 113f 7300 a93e 3f78 1bbf 6077 ce3e
00000180: 1013 e0be 0da3 dc3e 10ee 77be 0ba9 5ebf
00000190: 9f60 9e3f 93e3 a93f aa5c 70bf 0456 b23f
000001a0: 6ad3 373f 9e1c 17bf aef5 7ebf f978 4fbf
000001b0: 4379 5e3f 0c75 6d3f 9206 55bf a6e9 6e3f
000001c0: 9049 3abe 00ae 02bd e873 843f 8648 24bf
000001d0: ea73 21bf aaff 77bf 70a3 16bf 3315 83be
000001e0: e477 79bf 40fe 92bd 94eb 163f bb06 87be
000001f0: 3620 b53f eac7 4ebf 6518 a63f 5c65 63bf

linear1.bias f4 [128]
0.16333413 -0.7049216 -0.29764283 0.12830126 -0.067230865 0.08382041 -0.54376745 -0.9455776
0.53124017 0.36590093 0.121443905 -0.52588123 0.3096913 0.680485 -0.92537284 0.38308638
0.2952655 -0.7414429 0.5801802 -0.41172886 0.6631491 -0.05442214 0.7159599 0.47374758
-0.055195797 -0.03025825 0.34500176 -0.27507284 -0.06110716 0.33682135 0.65750116 -0.93567824
0.69459623 0.53139496 0.14052361 0.10282397 0.041859247 0.33944482 -0.10840905 0.078384995
0.32477096 0.8867465 -0.67946196 0.32193342 -0.12028397 -0.37021732 1.1553235 0.12236707
0.47711942 -0.059597697 -0.95783746 0.7132443 -0.27399123 0.12661287 -0.11079884 -0.99028957
0.014510379 -0.42754984 -0.054284334 0.69409144 0.6176935 0.55254585 0.5713455 -0.25276983
0.20523223 -0.2038522 -0.031304643 -0.78468776 0.43322822 0.5207726 0.27537483 -0.42021966
0.16185151 -0.5180814 -0.10567665 -0.3474888 0.06359649 0.55084765 -0.21449815 0.53290784
-0.51116097 0.6015889 1.0178239 1.0174404 0.016375184 -0.2573501 0.41000116 0.19879901
-0.1905688 -0.04057789 -0.10412717 0.5910325 0.2263054 0.528109 0.71295977 0.24081534
0.34479818 -0.79013765 -0.48354578 0.39928657 -0.20570919 -0.33247295 -0.2512288 -0.2611108
-0.5073005 0.05322337 -0.3945105 0.64501303 0.51465124 -0.22835355 -0.19999444 -0.17283241
-0.058848023 -0.121887565 0.36183822 -0.20155215 -0.7913871 -0.6132654 -0.3236798 0.21700658
-0.23878229 -0.20477796 0.06494181 0.35616535 -0.36889982 0.8397803 -0.22746895 -0.53004026
00000000: 1041 273e be75 34bf a464 98be 6861 033e
00000010: 56b0 89bd 09aa ab3d 5834 0bbf 6011 72bf
00000020: 5bff 073f 5e57 bb3e 95b7 f83d 27a0 06bf
00000030: dc8f 9e3e 4434 2e3f 3ce5 6cbf e623 c43e
00000040: 0a2d 973e 34cf 3dbf b186 143f 20ce d2be
00000050: 24c4 293f c0e9 5ebd 2649 373f 0b8f f23e
00000060: fd14 62bd 26e0 f7bc 12a4 b03e 59d6 8cbe
00000070: 804b 7abd d973 ac3e ff51 283f 9c88 6fbf
00000080: 0fd1 313f 8009 083f 6ce5 0f3e 6095 d23d
00000090: 9a74 2b3d b6cb ad3e 9005 debd 5088 a03d
000000a0: 6148 a63e d201 633f 38f1 2dbf 75d4 a43e
000000b0: 7157 f6bd 208d bdbe a4e1 933f 969b fa3d
000000c0: ff48 f43e b71c 74bd d634 75bf 2e97 363f
000000d0: 9448 8cbe cea6 013e 81ea e2bd 9e83 7dbf
000000e0: f1bc 6d3c d0e7 dabe 4059 5ebd faaf 313f
000000f0: 2921 1e3f a573 0d3f b343 123f 0c6b 81be
00000100: 6628 523e a2be 50be 4c39 00bd 4ce1 48bf
00000110: 17d0 dd3e 5a51 053f eefd 8c3e 0827 d7be
00000120: 67bc 253e fca0 04bf 006d d8bd 0dea b1be
00000130: e03e 823d 5a04 0d3f 67a5 5bbe a66c 083f
00000140: 72db 02bf bb01 1a3f 0e48 823f 7d3b 823f
00000150: 4025 863c 64c3 83be aceb d13e f891 4b3e
00000160: 7824 43be 0035 26bd a040 d5bd e84d 173f
00000170: 9abc 673e 2732 073f 8884 363f 4c98 763e
00000180: 6389 b03e 7646 4abf 5093 f7be 4a6f cc3e
00000190: 6ea5 52be e539 aabe 10a1 80be 51b0 85be
000001a0: 72de 01bf c000 5a3d 48fd c9be 931f 253f
000001b0: 2fc0 033f 83d5 69be 58cb 4cbe fbfa 30be
000001c0: a00a 71bd 30a0 f9bd dc42 b93e b063 4ebe
000001d0: 5898 4abf f6fe 1cbf 5cb9 a5be f936 5e3e
000001e0: 5883 74be 50b1 51be 3600 853d 4e5b b63e
000001f0: 70e0 bcbe d7fb 563f 9fed 68be b8b0 07bf

linear2.weight f4 [128, 8]
0.37215367 -0.07019163 -0.17810039 0.256685 0.3100059 -0.20478582 0.24878274 0.1794203
-0.101450875 -0.028736401 -0.101347744 0.15886943 -0.1947469 0.005930207 -0.111579075 -0.09367588
0.20272508 0.036782343 -0.09128699 0.43703315 0.5056852 0.4803262 0.55099505 0.5235231
-0.39721555 -0.30288157 0.03870566 -0.2175124 -0.086892515 0.0067164577 0.09501745 0.44634995
-0.5287434 0.19525264 -0.38353384 -0.30568492 0.19881895 0.1868521 -0.030306188 0.3192871
-0.10061061 -0.39057508 0.11338147 0.099594556 -0.5258731 -0.51425636 -0.30578077 -0.32678178
0.26703528 0.40817356 0.1484819 0.024340887 0.34318268 -0.056278545 0.43454123 0.013571799
-0.34620747 0.1976506 0.2039778 -0.11121909 -0.04204393 -0.2207551 0.051172823 -0.14829643
-0.62632465 0.11778737 -0.28017798 0.07798242 0.08883297 0.13661061 0.08477478 0.17813885
-0.1782807 -0.0954698 0.12778643 -0.30251938 0.10962245 -0.036536694 0.08708319 0.06703448
0.5709776 0.061949126 -0.010481117 0.5270717 0.37408754 0.40336043 0.5264789 0.046099618
-0.11620103 0.10098458 0.21605507 -0.2590205 -0.41721228 -0.30575827 -0.063765116 -0.23601058
-0.2855478 0.037914827 0.07632669 0.08949901 -0.49046448 0.1726126 0.124409184 -0.49917138
0.19532147 0.019428816 -0.24746622 0.06354536 -0.32047248 -0.36220118 -0.45275056 -0.29564136
0.07564825 -0.29677266 -0.016260624 -0.2247215 -0.29708678 0.20816763 0.3154824 -0.25833216
-0.02079612 -0.14080751 0.12664111 -0.3158448 -0.27531978 -0.20135203 0.25336984 -0.15482667
0.23377001 -0.14899862 0.33505306 0.39228502 0.08524604 0.24560961 -0.09570879 -0.11876256
0.16541679 0.09471205 0.22566047 -0.3993968 0.1448918 -0.0987289 -0.014616951 0.094506964
0.0038029824 -0.40527064 0.09136299 -0.06501207 0.039412923 -0.10244662 -0.04610339 -0.051281497
0.115358084 0.086134195 -0.25115877 -0.101543486 -0.07398668 0.096892655 0.09331596 -0.03601548
0.19339822 -0.41242355 -0.21340132 -0.3902731 -0.21138802 -0.41152838 -0.44606757 0.15742163
0.057697605 -0.060985133 0.31679016 -0.049956147 0.22451417 0.27853653 -0.09260861 0.35982406
-0.02051593 0.0075688087 0.34672317 -0.15793887 -0.03265361 0.060485158 0.110021055 0.2047715
-0.3489058 -0.101278044 -0.015434858 -0.4499828 -0.20829867 -0.1795209 -0.32222748 -0.08097513
-0.24055395 -0.21856323 0.032600194 -0.29116952 0.15946046 -0.15234897 -0.32830927 -0.106496915
0.060503185 0.016447514 -0.043108225 -0.18539572 -0.3090035 -0.2064109 -0.12373611 -0.2772773
0.06418416 -0.23527272 -0.22889355 0.23384497 -0.04235658 -0.002700597 0.10582963 -0.20321508
-0.45621836 -0.4888333 -0.44780868 -0.29149094 0.15738495 0.072108366 0.020939976 -0.42415658
-0.30532852 -0.35848412 0.122693546 -0.03591449 -0.08245927 -0.34925124 -0.15499833 0.33181018
-0.005431352 0.15957633 0.4312398 0.4571299 0.40545145 -0.15870598 0.13848396 0.053656645
0.027094321 0.4858114 0.25047207 0.19046968 0.0971697 0.09406051 0.15839498 0.33139953
-0.3930915 -0.2498577 -0.24079871 -0.13998643 -0.49361706 -0.35182345 -0.0056732 -0.22774877
00000000: ed8a be3e a1c0 8fbd f35f 36be 376c 833e
00000010: 18b9 9e3e 60b3 51be e7c0 7e3e f5b9 373e
00000020: 7ac5 cfbd 9a68 ebbc 688f cfbd abae 223e
00000030: bb6b 47be 2f52 c23b 9283 e4bd 24d9 bfbd
00000040: 2a97 4f3e 15a9 163d acf4 babd cfc2 df3e
00000050: 9674 013f 51ed f53e 030e 0d3f 9c05 063f
00000060: d65f cbbe 4b13 9bbe d389 1e3d 92bb 5ebe
00000070: b4f4 b1bd bb15 dc3b 8298 c23d fb87 e43e
00000080: ba5b 07bf 4ff0 473e 8c5e c4be bc82 9cbe
00000090: 3297 4b3e 2856 3f3e af44 f8bc 9979 a33e
000000a0: ef0c cebd 75f9 c7be 8b34 e83d 3bf8 cb3d
000000b0: 9f9f 06bf 4ea6 03bf 4c8f 9cbe f14f a7be
000000c0: d9b8 883e 20fc d03e a40b 183e 8a66 c73c
000000d0: a4b5 af3e 5584 66bd 307c de3e 405c 5e3c
000000e0: 1b42 b1be eb64 4a3e 8edf 503e d6c6 e3bd
000000f0: 4236 2cbd a00d 62be 989a 513d 05db 17be
00000100: d056 20bf 813a f13d 7d73 8fbe 3fb5 9f3d
00000110: 0fee b53d a7e3 0b3e 669e ad3d 086a 363e
00000120: 378f 36be ac85 c3bd 72da 023e d2e3 9abe
00000130: bc81 e03d 80a7 15bd ac58 b23d 6049 893d
00000140: 972b 123f 5ebe 7d3d feb8 2bbc 2cee 063f
00000150: 6788 bf3e 4285 ce3e 52c7 063f f4d2 3c3d
00000160: cefa edbd 01d1 ce3d 8a3d 5d3e 569e 84be
00000170: d99c d5be 598c 9cbe 4997 82bd c2ac 71be
00000180: 5233 92be 944c 1b3d 2b51 9c3d 424b b73d
00000190: 291e fbbe 5bc1 303e 3eca fe3d 6493 ffbe
000001a0: 5a02 483e 2e29 9f3c c967 7dbe 1224 823d
000001b0: f814 a4be 6f72 b9be ecce e7be 4e5e 97be
000001c0: 78ed 9a3d 96f2 97be 0035 85bc 651d 66be
000001d0: c21b 98be e529 553e e986 a13e 1d44 84be
000001e0: a05c aabc d82f 10be 35ae 013e 69b6 a1be
000001f0: b7f6 8cbe 3a2f 4ebe b1b9 813e e28a 1ebe
00000200: 6861 6f3e 1893 18be 138c ab3e 95d9 c83e
00000210: 7a95 ae3d 1681 7b3e f802 c4bd c939 f3bd
00000220: 0563 293e 64f8 c13d 8a13 673e bd7d ccbe
00000230: 845e 143e 6132 cabd f07b 6fbc de8c c13d
00000240: 753b 793b a27f cfbe 851c bb3d 0c25 85bd
00000250: 726f 213d 89cf d1bd e9d6 3cbd 8c0c 52bd
00000260: dc40 ec3d 2067 b03d e297 80be 08f6 cfbd
00000270: 5486 97bd a86f c63d 701c bf3d f884 13bd
00000280: 2f0a 463e 2e29 d3be e085 5abe e0d1 c7be
00000290: 1a76 58be d9b3 d2be f862 e4be 2333 213e
000002a0: 5354 6c3d 8ccb 79bd 5232 a23e d19e 4cbd
000002b0: 0be7 653e 579c 8e3e 95a9 bdbd dc3a b83e
000002c0: 0611 a8bc c503 f83b b385 b13e baba 21be
000002d0: cbbf 05bd 49bf 773d b852 e13d 9faf 513e
000002e0: c8a3 b2be dd6a cfbd 7de2 7cbc 2564 e6be
000002f0: 3f4c 55be 54d4 37be 00fb a4be 4ad6 a5bd
00000300: c653 76be 0acf 5fbe c887 053d 2c14 95be
00000310: 9a49 233e 5e01 1cbe 2718 a8be 0e1b dabd
00000320: 30d2 773d f0bc 863c 4092 30bd 60d8 3dbe
00000330: b535 9ebe 615d 53be 5c69 fdbd 4af7 8dbe
00000340: fc72 833d 55eb 70be 1263 6abe 0e75 6f3e
00000350: 187e 2dbd 80fc 30bb 34bd d83d 9d17 50be
00000360: 7495 e9be 5c48 fabe 2e47 e5be 4d3e 95be
00000370: 8529 213e 8dad 933d 508a ab3c 0d2b d9be
00000380: 0554 9cbe 3b8b b7be c146 fb3d 131b 13bd
00000390: 68e0 a8bd 0fd1 b2be e2b7 1ebe 06e3 a93e
000003a0: 7cf9 b1bb fa67 233e 77cb dc3e ee0c ea3e
000003b0: 5597 cf3e d283 22be bdce 0d3e 12c7 5b3d
000003c0: e9f4 dd3c 46bc f83e e03d 803e 7c0a 433e
000003d0: e800 c73d cca2 c03d 4b32 223e 33ad a93e
000003e0: 4a43 c9be b2da 7fbe f093 76be 9a58 0fbe
000003f0: 60bb fcbe 3422 b4be 40e6 b9bb f936 69be

linear2.bias f4 [128]
-0.12120247 0.35937414 0.09479677 -0.007998675 -0.02119273 0.13245629 -0.040353946 0.40884316
-0.06307402 -0.21716028 0.17782153 0.34040806 0.37010783 0.29833668 -0.2626722 0.24824774
-0.11405374 0.45806068 0.35871226 -0.18845356 0.22832021 0.1523081 -0.26797557 0.047165763
-0.3300892 -0.0260548 -0.32708272 0.32700646 0.31025615 -0.17550057 -0.02075556 0.15427178
0.24906856 0.17204027 0.15395091 0.0582577 0.052564003 0.27689564 0.4083135 0.19293098
0.3588313 0.46068385 -0.28669807 -0.08230677 -0.09195393 -0.15569337 0.123724625 -0.18388501
0.42055282 0.35762516 0.09867536 0.14313057 0.27876806 0.43939874 -0.14543141 0.3794092
-0.038355347 0.4330128 -0.15806533 0.49519134 -0.15357283 -0.16059145 -0.22352965 -0.27058408
0.090003274 -0.26823005 -0.11531921 0.44029492 0.15257001 0.45550004 -0.29383302 -0.18357179
-0.17000835 0.30748302 0.27864978 -0.09759885 -0.021435134 -0.23979934 -0.17943865 -0.22287515
0.10244189 0.15463768 0.27999133 -0.045521617 0.06354423 0.16858809 0.16690451 0.15715167
0.33289823 -0.31571025 0.028356824 0.37319323 0.30662906 0.25735182 -0.32960466 0.32929647
-0.115518205 -0.21098152 -0.044277355 0.47117034 0.14547825 0.14241405 0.11167057 0.3292194
-0.00789933 -0.076547325 0.03317025 -0.2130227 -0.22896728 0.34013253 0.112236135 -0.12356371
0.2963094 0.13213469 0.3958338 0.017383907 0.003901103 0.28921413 -0.008698515 -0.14555597
0.17842577 -0.19937962 0.27626908 -0.34878874 0.3186181 0.16403107 0.1506441 0.09152045
00000000: 0039 f8bd e3ff b73e cf24 c23d e00c 03bc
00000010: 609c adbc 9fa2 073e 2e4a 25bd e453 d13e
00000020: f42c 81bd 445f 5ebe d916 363e f749 ae3e
00000030: c67e bd3e 96bf 983e f87c 86be a834 7e3e
00000040: 0295 e9bd ee86 ea3e 22a9 b73e f8f9 40be
00000050: c6cc 693e a8f6 1b3e 1834 89be e330 413d
00000060: 7401 a9be e070 d5bc 6377 a7be 646d a73e
00000070: e5d9 9e3e 6cb6 33be 9007 aabc 6cf9 1d3e
00000080: d40b 7f3e 532b 303e 4fa5 1d3e a09f 6e3d
00000090: 5a4d 573d 44c5 8d3e 780e d13e b38f 453e
000000a0: bcb8 b73e c1de eb3e 17ca 92be 7490 a8bd
000000b0: 5852 bcbd 156e 1fbe 5663 fd3d 5a4c 3cbe
000000c0: b352 d73e a51a b73e 4f16 ca3d d290 123e
000000d0: b0ba 8e3e dff8 e03e f9eb 14be ec41 c23e
000000e0: 7f1a 1dbd dbb3 dd3e e1db 21be b889 fd3e
000000f0: 3242 1dbe 1672 24be f5e4 64be ff89 8abe
00000100: a353 b83d 7355 89be 7a2c ecbd 566e e13e
00000110: 503b 1c3e 4d37 e93e 4871 96be 3efa 3bbe
00000120: ab16 2ebe 6a6e 9d3e 2fab 8e3e e8e1 c7bd
00000130: bc98 afbc f58d 75be c4be 37be 6239 64be
00000140: 0ecd d13d 5759 1e3e 065b 8f3e e074 3abd
00000150: 7a23 823d 5ba2 2c3e 04e9 2a3e 5eec 203e
00000160: a371 aa3e c6a4 a1be 924c e83c 2f13 bf3e
00000170: 7cfe 9c3e 9ec3 833e f1c1 a8be 8c99 a83e
00000180: cf94 ecbd 8a0b 58be 2c5c 35bd 3d3d f13e
00000190: 40f8 143e fdd4 113e 8ab3 e43d 728f a83e
000001a0: 316c 01bc d8c4 9cbd 87dd 073d 9f22 5abe
000001b0: 6676 6abe da25 ae3e 0fdc e53d f80e fdbd
000001c0: deb5 973e 514e 073e baaa ca3e b268 8e3c
000001d0: a6a9 7f3b e013 943e 3784 0ebc a00c 15be
000001e0: 3fb5 363e 2c2a 4cbe 2473 8d3e 7094 b2be
000001f0: e921 a33e c3f7 273e 7242 1a3e 136f bb3d

linear3.weight f4 [128, 8]
0.17377077 -0.091859125 -0.30711174 0.26826653 0.30666125 0.009221598 -0.3276256 -0.46257702
0.23943235 -0.32170573 -0.19820023 0.15809116 -0.06495761 0.35260707 0.23981158 -0.22502965
0.21609469 -0.046676766 -0.113538064 0.23152626 0.009567709 0.122997805 0.40273157 0.38926956
0.34978688 -0.12892048 0.24309872 0.18459016 0.29576573 0.05982162 -0.17016314 0.48927942
0.29697803 -0.17268603 -0.054190822 -0.0089285 0.11670243 -0.032356437 0.2583431 0.0027787595
0.14564906 -0.18872996 0.22862047 0.49986744 0.3193267 -0.13053784 -0.13739672 -0.048376266
0.39261502 0.13492286 -0.063991666 -0.23299618 0.23287177 0.32836327 0.037722506 0.11591427
0.21756278 0.02285301 0.045552142 0.02242081 0.041690595 -0.16666432 -0.08066113 -0.36617222
0.17506455 0.036983646 -0.24895458 -0.038594015 0.05872016 -0.2465751 0.13721262 -0.29527748
0.29423097 0.09706707 0.21682878 -0.19967096 0.31826988 -0.078207426 0.3188485 0.38242868
-0.12467064 -0.09323859 -0.020366846 0.34071594 -0.059130967 0.03410088 0.26125425 -0.21377343
-0.24205856 -0.08522599 -0.054627996 -0.26535258 0.181635 0.38540953 0.32694715 -0.16447102
-0.19245505 0.3377413 0.40822282 -0.17746669 0.19990155 -0.099986695 -0.03233549 -0.255025
0.103302345 0.45524508 -0.17121024 0.41263163 -0.13235782 -0.07390673 0.009447235 0.018237371
-0.11667881 0.049620822 0.12644939 0.1355632 0.23760664 -0.14511761 0.020706626 0.38577825
0.06866519 0.28237545 -0.018392228 -0.026558312 0.18005486 -0.3191366 0.25417566 -0.15239298
-0.07545044 0.21457541 0.11383703 0.2601422 -0.007749463 -0.29389736 0.04768339 -0.11119378
-0.21364139 0.061668742 0.11425999 0.114384316 0.28709537 0.3135048 -0.32195204 -0.16805753
0.05843064 -0.032698475 -0.056191307 0.06594729 0.10335223 0.30635783 -0.11263604 -0.3881656
0.5156464 0.0009033262 0.27658588 -0.10461669 -0.014249366 0.28331465 -0.10117011 0.13930357
-0.10945198 0.33889318 -0.11161521 0.3281732 0.16824237 0.11082391 -0.0927649 0.3637817
0.116911896 -0.09801086 -0.32461533 -0.04429369 -0.07452393 0.089948684 0.3418626 -0.116563745
0.0981668 0.07454459 -0.1355708 0.0073954747 0.13157807 -0.04206979 0.27684712 -0.16323219
-0.18096343 0.03865522 0.32294297 -0.009719855 0.26154408 0.080899425 0.16309255 0.033008944
0.018048486 -0.066966675 0.22233054 -0.005161181 0.026164887 0.29297623 0.118372075 0.1310944
-0.19917166 0.0073260423 -0.07727959 0.20166908 -0.16543536 0.14906889 0.35861036 0.31507224
-0.2581791 0.25112262 -0.11736594 0.0032059853 0.22594771 0.1894664 0.35962364 -0.42269903
-0.017740505 -0.050919976 0.03445505 0.117832564 0.3790016 -0.0048472467 0.30811858 0.31226334
-0.03873944 0.08694648 0.11354529 -0.116532005 0.0773449 -0.0013062048 0.3889077 0.039460585
-0.02123573 0.10552639 0.0755239 0.06276136 0.022240164 -0.06636697 0.26376182 0.32873613
-0.18268567 0.035585042 0.24580416 0.30799052 -0.3716146 -0.38132605 0.100729376 -0.08657243
-0.03799978 -0.018295731 -0.27342972 0.13200276 0.17236707 -0.24147075 0.27753627 0.018963596
00000000: f7f0 313e a320 bcbd c03d 9dbe 3b5a 893e
00000010: b402 9d3e 2f16 173c 8bbe a7be e5d6 ecbe
00000020: c12d 753e 9db6 a4be 00f5 4abe a6e2 213e
00000030: 7f08 85bd ea88 b43e 2b91 753e 2c6e 66be
00000040: ed47 5d3e 2330 3fbd a586 e8bd 3815 6d3e
00000050: e1c1 1c3c 46e6 fb3d d532 ce3e 574e c73e
00000060: 4417 b33e bb03 04be dfee 783e 3405 3d3e
00000070: 9b6e 973e 8407 753d 3f3f 2ebe d582 fa3e
00000080: 810d 983e 9bd4 30be 32f7 5dbd d848 12bc
00000090: af01 ef3d 2f88 04bd 8c45 843e d91b 363b
000000a0: 0725 153e 6d42 41be 7c1b 6a3e a0ee ff3e
000000b0: ca7e a33e b6ab 05be bab1 0cbe 3126 46bd
000000c0: d604 c93e 3829 0a3e 100e 83bd 8d96 6ebe
000000d0: f075 6e3e 3b1f a83e ea82 1a3d 7664 ed3d
000000e0: c7c8 5e3e 3c36 bb3c e294 3a3d d9ab b73c
000000f0: c2c3 2a3d 0daa 2abe aa31 a5bd ed7a bbbe
00000100: 1f44 333e 2a7c 173d f3ed 7ebe c214 1ebd
00000110: 8d84 703d 2f7e 7cbe 7781 0c3e 9c2e 97be
00000120: 71a5 963e 1acb c63d 5d08 5e3e 8b76 4cbe
00000130: 45f4 a23e 372b a0bd 1c40 a33e b1cd c33e
00000140: 5253 ffbd e0f3 bebd 5fd8 a6bc 5272 ae3e
00000150: 5033 72bd 5dad 0b3d 1ec3 853e 6ce7 5abe
00000160: 33de 77be f78a aebd 9bc1 5fbd 4bdc 87be
00000170: 87fe 393e 6654 c53e 9e65 a73e 176b 28be
00000180: f012 45be 6dec ac3e 9502 d13e d4b9 35be
00000190: feb2 4c3e d3c5 ccbd 3872 04bd a392 82be
000001a0: 2e90 d33d e215 e93e bd51 2fbe 7444 d33e
000001b0: cf88 07be 695c 97bd 93c8 1a3c 8a66 953c
000001c0: 4df5 eebd 343f 4b3d f37b 013e 14d1 0a3e
000001d0: 284f 733e b699 14be f1a0 a93c ba84 c53e
000001e0: 56a0 8c3d 8493 903e 4cab 96bc d190 d9bc
000001f0: 4d60 383e df65 a3be 5023 823e e80c 1cbe
00000200: c385 9abd a8b9 5b3e 6423 e93d 5c31 853e
00000210: 35ef fdbb b779 96be a94f 433d 91b9 e3bd
00000220: cfc4 5abe 5d98 7c3d 2401 ea3d 5342 ea3d
00000230: 2afe 923e b383 a03e e6d6 a4be 4617 2cbe
00000240: f754 6f3d d6ee 05bd db28 66bd 5f0f 873d
00000250: 55aa d33d efda 9c3e b9ad e6bd a4bd c6be
00000260: 6701 043f 32cd 6c3a aa9c 8d3e 4641 d6bd
00000270: 2c76 69bc 9e0e 913e 4632 cfbd 98a5 0e3e
00000280: 5c28 e0bd 6883 ad3e 8496 e4bd 5106 a83e
00000290: ba47 2c3e a5f7 e23d 86fb bdbd 9841 ba3e
000002a0: 816f ef3d ebb9 c8bd fb33 a6be 4d6d 35bd
000002b0: 01a0 98bd 0437 b83d 9d08 af3e f9b8 eebd
000002c0: ad0b c93d d6aa 983d 12d3 0abe bd55 f23b
000002d0: 67bc 063e 5f51 2cbd e8be 8d3e 5726 27be
000002e0: 7a4e 39be f054 1e3d c858 a53e 0740 1fbc
000002f0: 1be9 853e 99ae a53d bc01 273e 6334 073d
00000300: 6bda 933c d325 89bd 9eaa 633e 201f a9bb
00000310: bf57 d63c fb00 963e 0f6d f23d 9c3d 063e
00000320: a8f3 4bbe 4c0f f03b c344 9ebd 5782 4e3e
00000330: e367 29be 84a5 183e c79b b73e 2651 a13e
00000340: 0d30 84be 2593 803e 8e5d f0bd 821b 523b
00000350: d65e 673e 7b03 423e 9720 b83e 026c d8be
00000360: 8954 91bc 7791 50bd bd20 0d3d 3352 f13d
00000370: 7f0c c23e a7d5 9ebb b8c1 9d3e fbe0 9f3e
00000380: 3fad 1ebd ff10 b23d 6f8a e83d 55a8 eebd
00000390: 0167 9e3d f634 abba e91e c73e 6ca1 213d
000003a0: 8ef6 adbc 381e d83d 46ac 9a3d 0789 803d
000003b0: 0131 b63c 68eb 87bd ca0b 873e 1a50 a83e
000003c0: f411 3bbe 9fc1 113d 16b4 7b3e efb0 9d3e
000003d0: 4544 bebe 2b3d c3be 344b ce3d e34c b1bd
000003e0: a8a5 1bbd eee0 95bc fbfe 8bbe bb2b 073e
000003f0: fe80 303e 1c44 77be 3c19 8e3e 8b59 9b3c

linear3.bias f4 [128]
0.22686432 0.041154422 -0.26874277 -0.06265053 0.25123656 -0.054551665 -0.13046283 0.1577447
0.27851745 -0.2505942 0.34930614 0.09630791 0.13378555 0.19918342 0.43111297 -0.129569
-0.12328511 -0.073650114 0.060759306 -0.12383541 -0.03631873 0.10128733 -0.019453917 0.08629589
-0.06417367 0.10437774 -0.086513415 -0.17422245 0.15616387 0.19128247 0.25692865 0.020802207
0.07426525 -0.26462898 0.19150895 0.22358635 0.15781054 -0.1269648 -0.02669345 0.22351116
0.25956973 -0.36080447 0.20049566 0.30860668 0.07674012 0.34971493 -0.1436339 -0.028800996
0.27413887 0.007284044 0.24000971 -0.042370368 0.27626508 0.05652708 -0.15891711 -0.18338545
-0.14704856 0.03154159 0.22165793 -0.1469728 0.034133982 -0.17357403 -0.1799742 0.16168556
0.2297174 -0.061500937 -0.06078178 0.38616094 -0.3014084 -0.31854102 0.1343831 0.2093006
0.21626997 0.085767515 -0.20658879 0.19736615 0.32264185 0.33489904 0.2935981 -0.101114705
0.14045452 -0.24376029 0.5213147 -0.12208644 -0.10781669 0.23937751 0.24179721 0.18452233
-0.08965389 0.16819206 -0.02634469 0.055869915 -0.18550453 -0.38811472 0.028994842 -0.020443026
0.03698993 -0.053293023 0.058612548 -0.22731905 0.23867898 -0.23239604 -0.109910645 -0.09090627
0.29105344 -0.2737486 -0.050061688 0.3242154 -0.12812653 -0.09252026 -0.06533318 0.29407734
0.19447641 -0.19691938 -0.0976436 -0.10009316 -0.059398986 0.03449479 0.23911196 0.08235134
-0.17909111 0.19545367 0.19617262 0.28599754 0.090683915 -0.08519563 -0.050900783 -0.36005825
00000000: 1f4f 683e 8a91 283d a798 89be ec4e 80bd
00000010: 14a2 803e 9171 5fbd 0c98 05be d487 213e
00000020: d799 8e3e e24d 80be 41d8 b23e 153d c53d
00000030: 14ff 083e bdf6 4b3e d7ba dc3e bcad 04be
00000040: e77c fcbd dfd5 96bd c0de 783d 6b9d fdbd
00000050: f3c2 14bd bb6f cf3d d25d 9fbc e6bb b03d
00000060: 7c6d 83bd ffc3 d53d f22d b1bd 5f67 32be
00000070: 6ce9 1f3e 8ddf 433e 278c 833e 6469 aa3c
00000080: 6118 983d 737d 87be ec1a 443e d2f3 643e
00000090: 1699 213e 0f03 02be 39ac dabc 1ce0 643e
000000a0: 53e6 843e 5dbb b8be bc4e 4d3e b201 9e3e
000000b0: ed29 9d3d d60d b33e c414 13be 11f0 ebbc
000000c0: ee5b 8c3e fdae ee3b 1bc5 753e 8d8c 2dbd
000000d0: 9e72 8d3e f088 673d 2bbb 22be 65c9 3bbe
000000e0: e693 16be c131 013d 4cfa 623e 0a80 16be
000000f0: 13d0 0b3d 64bd 31be 284b 38be e690 253e
00000100: 0a3b 6b3e 68e8 7bbd 51f6 78bd e3b6 c53e
00000110: 3452 9abe cf17 a3be b99b 093e e652 563e
00000120: e075 5d3e e1a6 af3d 038c 53be 5a1a 4a3e
00000130: 5031 a53e e377 ab3e 7d52 963e 3a15 cfbd
00000140: 4fd3 0f3e 4c9c 79be e174 053f 7508 fabd
00000150: ffce dcbd 611f 753e b099 773e 6cf3 3c3e
00000160: 759c b7bd 8a3a 2c3e d2d0 d7bc dad7 643d
00000170: e6f4 3dbe f9b6 c6be 9786 ed3c 2278 a7bc
00000180: c182 173d c949 5abd b613 703d 53c6 68be
00000190: 4368 743e 3af9 6dbe d518 e1bd 112d babd
000001a0: f504 953e c728 8cbe 7c0d 4dbd 90ff a53e
000001b0: 9a33 03be 437b bdbd 67cd 85bd 4e91 963e
000001c0: d324 473e 3ca5 49be 5ef9 c7bd a5fd ccbd
000001d0: 5a4c 73bd 694a 0d3d c4d9 743e d2a7 a83d
000001e0: a963 37be 0225 483e 7ae1 483e 456e 923e
000001f0: 7db8 b93d 0c7b aebd 577d 50bd 8e59 b8be

linear4.weight f4 [128, 6]
0.0020711124 -0.33074927 0.16989541 -0.38132396 -0.3903117 0.3549388 -0.05632478 -0.2872659
-0.25943136 0.23731107 -0.14019182 -0.06339455 -0.24539404 -0.072153345 -0.023908813 0.27942103
0.45204756 0.36714497 0.089083806 0.2236528 -0.13148768 0.31513938 0.548128 0.4761284
0.44508716 0.08487445 0.31505367 0.26132843 0.48124057 0.107874095 0.35524702 -0.19195123
0.04497385 -0.3763067 -0.09581503 0.21169364 -0.0511843 0.27408394 0.552477 0.4465689
0.113522284 -0.042636838 -0.12211123 0.10034621 -0.20717771 -0.37051082 -0.20305562 -0.071826875
0.33205366 0.031283304 0.24737173 0.12477038 -0.0067529203 -0.111822955 0.1145246 0.29522645
0.13082111 -0.023357153 -0.37239072 -0.22046307 0.25116622 0.31605822 -0.13191631 -0.34031886
0.060649276 -0.22081222 0.07928004 -0.122024626 0.36065835 0.48499316 -0.21939002 0.41565517
0.013987243 -0.21003705 0.15695399 0.29581696 0.11879313 -0.25684595 -0.37363595 -0.024589568
-0.08862239 -0.13250902 -0.24391887 0.23160529 -0.013835102 -0.2612835 0.39933324 -0.38374656
0.024001598 0.18675166 -0.15640144 0.046181228 0.4596152 0.2900285 -0.25183117 0.437323
0.14166787 -0.25275102 0.3379184 0.112479724 0.3898965 0.30553785 0.090420485 -0.19059502
0.09169376 0.1340658 0.27588254 -0.35035813 -0.02825848 -0.17060903 -0.2798671 -0.26155427
0.4189284 0.41191375 0.23991275 0.23696768 -0.023367107 -0.06284577 -0.036515146 -0.08416659
-0.04103473 -0.105192155 0.27794373 -0.015109241 -0.07338607 -0.3917384 0.14990109 0.06623562
0.27618784 -0.062121734 0.2830925 0.16074836 0.08316638 0.20465419 0.43145242 -0.07482348
0.2689078 0.14951701 -0.21861485 -0.11464468 0.21400279 -0.2740355 -0.12407771 -0.1802947
-0.4015651 0.18675047 -0.17823249 0.027805537 0.058657706 -0.16947661 0.23730843 0.21000077
-0.12263219 0.22271377 0.35538492 0.35302955 -0.15086666 -0.22046249 0.36296082 -0.36236975
-0.25713348 0.1846537 -0.30688816 -0.2648841 -0.13248959 -0.38488865 0.09443587 0.12814039
-0.2847426 0.2880218 -0.16491224 -0.23034817 -0.19705878 -0.07909709 0.0055908044 -0.010981789
0.48453313 0.34657675 0.4541396 0.22421697 0.56390476 0.5680031 -0.1493873 0.08425691
0.5597456 -0.020376332 0.04984462 0.2369306 0.2627686 0.33980027 -0.21105213 0.30762258
-0.16867769 -0.039281737 -0.21768026 0.3231604 0.29139417 0.42212838 -0.007930151 0.13134739
0.10559942 -0.3225957 0.20577894 0.18425952 -0.30165938 0.09627861 -0.10176459 -0.016281396
-0.40718538 0.25220567 0.50200987 0.33172405 0.2686305 0.019856224 0.09651324 0.50512886
0.22549397 0.2936074 0.14423364 0.35423255 -0.3568874 -0.20662999 -0.014258739 -0.17869435
-0.06347435 0.38110042 0.2081994 0.20183557 -0.22946331 -0.20080449 -0.20287886 -0.073114455
0.1603561 -0.326238 -0.09807619 0.50926125 -0.10631164 0.11509745 -0.02561408 0.436485
-0.1628796 -0.16608915 -0.043710202 -0.0050962567 -0.070821166 -0.34121215 -0.22157142 0.21427083
0.098489136 -0.2571007 0.40597603 0.11984787 0.04672969 0.30449882 -0.24202786 -0.09542431
00000000: 80bb 073b f857 a9be 10f9 2d3e e53c c3be
00000010: efd6 c7be 8aba b53e d0b4 66bd 8414 93be
00000020: 30d4 84be ac01 733e 728e 0fbe 00d5 81bd
00000030: 9348 7bbe 22c5 93bd 6adc c3bc 4610 8f3e
00000040: c772 e73e 6dfa bb3e 9271 b63d 3d05 653e
00000050: b5a4 06be f359 a13e 1e52 0c3f 1ac7 f33e
00000060: 77e2 e33e a8d2 ad3d b74e a13e d7cc 853e
00000070: 2a65 f63e 18ed dc3d f0e2 b53e dd8e 44be
00000080: 8036 383d 46ab c0be ac3a c4bd 38c6 583e
00000090: a1a6 51bd bb54 8c3e 226f 0d3f aea4 e43e
000000a0: 5f7e e83d f7a3 2ebd 7415 fabd 5082 cd3d
000000b0: 6526 54be 98b3 bdbe d0ed 4fbe f819 93bd
000000c0: f002 aa3e ec22 003d 044f 7d3e 9d87 ff3d
000000d0: 9a47 ddbb 6f03 e5bd e08b ea3d ec27 973e
000000e0: f8f5 053e 8057 bfbc ffa9 bebe 12c1 61be
000000f0: dc98 803e 62d2 a13e 1215 07be 463e aebe
00000100: 606b 783d 991c 62be 935d a23d 0ce8 f9bd
00000110: 36a8 b83e 0651 f83e c7a7 60be c1d0 d43e
00000120: c02a 653c f413 57be 8cb8 203e 5275 973e
00000130: d049 f33d 5081 83be 364d bfbe 1070 c9bc
00000140: a87f b5bd 72b0 07be dec5 79be f029 6d3e
00000150: a0ac 62bc f3c6 85be 6875 cc3e 6e7a c4be
00000160: 009f c43c d43b 3f3e b327 20be 8728 3d3d
00000170: af52 eb3e 9e7e 943e 04f0 80be cde8 df3e
00000180: 6211 113e 9568 81be a403 ad3e c55b e63d
00000190: 84a0 c73e 756f 9c3e 602e b93d 572b 43be
000001a0: f0c9 bb3d 8c48 093e 7a40 8d3e 2462 b3be
000001b0: 547e e7bc 22b4 2ebe be4a 8fbe 71ea 85be
000001c0: c97d d63e 5ce6 d23e b0ab 753e a8a7 723e
000001d0: 606c bfbc 48b5 80bd e890 15bd 885f acbd
000001e0: 0814 28bd fc6e d7bd a44e 8e3e c08c 77bc
000001f0: 704b 96bd f091 c8be ac7f 193e 8aa6 873d
00000200: 7e68 8d3e 5c73 7ebd 80f1 903e 389b 243e
00000210: 2353 aa3d de90 513e 55e7 dc3e 0d3d 99bd
00000220: 48ae 893e fd1a 193e 92dc 5fbe d4ca eabd
00000230: 8c23 5b3e 624e 8cbe 741c febd 2d9f 38be
00000240: f199 cdbe 843b 3f3e 9482 36be 70c8 e33c
00000250: 1043 703d 478b 2dbe fb00 733e 710a 573e
00000260: 9626 fbbd 140f 643e 03f5 b53e 4ac0 b43e
00000270: ca7c 1abe ebc0 61be 00d6 b93e 8788 b9be
00000280: 00a7 83be dc15 3d3e 7220 9dbe e49e 87be
00000290: 5aab 07be 2010 c5be 9867 c13d 3c37 033e
000002a0: c8c9 91be 9877 933e c1de 28be 64e0 6bbe
000002b0: c7c9 49be a8fd a1bd 1133 b73b f6ec 33bc
000002c0: ba14 f83e 8272 b13e fc84 e83e 2299 653e
000002d0: 105c 103f a768 113f fcf8 18be e38e ac3d
000002e0: 7d4b 0f3f 44ec a6bc df29 4c3d ef9d 723e
000002f0: 9b89 863e 4dfa ad3e 0d1e 58be b580 9d3e
00000300: d8b9 2cbe e3e5 20bd 93e7 5ebe 4875 a53e
00000310: 9e31 953e 3621 d83e 77ed 01bc ee7f 063e
00000320: 8244 d83d 432b a5be b7b7 523e 87ae 3c3e
00000330: 1973 9abe b82d c53d f469 d0bd 9060 85bc
00000340: 9a7a d0be 1a21 813e b883 003f bcd7 a93e
00000350: f089 893e 85a9 a23c bca8 c53d 2050 013f
00000360: e4e7 663e b653 963e fcb1 133e f85d b53e
00000370: f2b9 b6be d096 53be 7c9d 69bc a7fb 36be
00000380: d7fe 81bd 981f c33e 3932 553e fcad 4e3e
00000390: 6ef8 6abe b19f 4dbe 7abf 4fbe 08bd 95bd
000003a0: 6434 243e ab08 a7be 2bdc c8bd f25e 023f
000003b0: ebb9 d9bd 36b8 eb3d 9ed4 d1bc f67a df3e
000003c0: e9c9 26be 4613 2abe 7809 33bd 80fe a6bb
000003d0: b00a 91bd 5cb3 aebe 9ee3 62be d069 5b3e
000003e0: acb4 c93d b4a2 83be 17dc cf3e cd72 f53d
000003f0: a267 3f3d 45e7 9b3e 27d6 77be d26d c3bd

linear4.bias f4 [128]
-0.22893059 0.20358884 0.18687542 0.23726112 -0.21592946 -0.08077416 0.3013513 -0.19815865
-0.11490633 0.40108228 0.34613305 -0.18317246 -0.0778434 -0.32904023 -0.27917886 0.09169925
-0.30506355 -0.015103221 -0.3335865 -0.36308262 -0.31206852 0.39529973 -0.01878422 -0.12616932
0.21448922 0.2486617 -0.16339791 -0.14220014 -0.15668148 0.35990593 0.32727644 0.067473926
0.34258738 0.2410158 -0.20219743 -0.2651732 0.34445456 0.5050734 -0.37980494 0.45301744
0.36726928 -0.042008143 -0.36964628 0.31246263 -0.26350304 0.2671518 0.17884552 0.18178758
-0.12829465 -0.24655092 -0.2885979 -0.2465718 0.14563592 0.2523132 0.20108074 -0.38753572
-0.12128578 -0.3183229 -0.26176605 0.2666676 0.11823298 -0.086153805 0.35831615 0.38285887
-0.037705928 0.23195034 -0.23315075 -0.40632683 0.05130225 0.14431119 0.093061626 0.16904783
0.39336935 0.23075838 -0.23614435 0.054991536 0.35214484 -0.028294116 -0.026900351 -0.32863277
-0.0020844978 0.4580287 -0.05122766 -0.24643047 0.22242606 -0.19166628 0.26013443 0.14573401
-0.39834788 0.33173218 -0.018493265 0.15202875 0.37924683 -0.11415714 0.27590507 0.47512272
0.35646445 -0.43544847 -0.08867686 -0.21997057 0.25491887 0.06327469 0.43300262 -0.38600263
0.23455194 -0.24988656 0.05756396 -0.2951871 0.1111949 0.43458346 0.44756123 0.40577656
0.2036286 0.19944017 0.2562257 -0.27242944 -0.24776597 -0.2651543 -0.2700438 0.10830271
-0.3610146 0.13384879 0.5286629 -0.28156263 -0.3887188 0.3071416 -0.174114 0.04469736
00000000: c86c 6abe 9879 503e 455c 3f3e 94f4 723e
00000010: 9d1c 5dbe ec6c a5bd b84a 9a3e 1aea 4abe
00000020: 0354 ebbd a85a cd3e 5a38 b13e 9091 3bbe
00000030: 5c6c 9fbd f677 a8be 88f0 8ebe d1cc bb3d
00000040: 4a31 9cbe 8073 77bc dacb aabe f7e5 b9be
00000050: 72c7 9fbe ba64 ca3e 5de1 99bc 8832 01be
00000060: 10a3 5b3e 2ca1 7e3e c851 27be ea9c 11be
00000070: 1c71 20be 9745 b83e c790 a73e c52f 8a3d
00000080: 9d67 af3e d9cc 763e d80c 4fbe c8c4 87be
00000090: 595c b03e 7e4c 013f cb75 c2be e7f1 e73e
000000a0: b80a bc3e bb10 2cbd 4742 bdbe 1afb 9f3e
000000b0: dfe9 86be 1fc8 883e 4823 373e 8626 3a3e
000000c0: ac5f 03be d877 7cbe 1bc3 93be 517d 7cbe
000000d0: 9521 153e 322f 813e 1ce8 4d3e 156b c6be
000000e0: ae64 f8bd 38fb a2be 3306 86be a888 883e
000000f0: 2224 f23d 6871 b0bd 3775 b73e 1406 c43e
00000100: 8871 1abd 6484 6d3e 12bf 6ebe 120a d0be
00000110: 4f22 523d 50c6 133e 1897 be3d e01a 2d3e
00000120: b567 c93e ed4b 6c3e d3cf 71be ce3e 613d
00000130: 544c b43e 10c9 e7bc 205e dcbc 8e42 a8be
00000140: 129c 08bb bd82 ea3e 18d4 51bd 4558 7cbe
00000150: a8c3 633e 2a44 44be 5730 853e 4c3b 153e
00000160: 41f4 cbbe cdd8 a93e 307f 97bc 6dad 1b3e
00000170: a42c c23e 38cb e9bd 6e43 8d3e 4943 f33e
00000180: 8282 b63e 1af3 debe 379c b5bd f73f 61be
00000190: ba84 823e 2996 813d 85b2 dd3e 23a2 c5be
000001a0: 622e 703e 43e2 7fbe 30c8 6b3d c322 97be
000001b0: 27ba e33d b981 de3e bf26 e53e f2c1 cf3e
000001c0: 0484 503e 0b3a 4c3e 0430 833e df7b 8bbe
000001d0: 5db6 7dbe 4ec2 87be 2e43 8abe d0cd dd3d
000001e0: e8d6 b8be a80f 093e 7456 073f fa28 90be
000001f0: 2706 c7be aa41 9d3e f14a 32be 9414 373d

linear5.weight f4 [128, 1]
-0.27085295 -0.46426305 -0.18952945 -0.0030148807 0.5802741 0.72196764 -0.84318316 -0.51309025
-0.41010836 0.9425435 0.1528201 -0.32873118 0.11567721 -0.53570473 -0.7914818 -0.42393646
0.6364915 1.0086287 -0.20461746 -0.4558234 0.6203772 0.6909172 0.57899266 -1.1091932
-0.8777601 -0.39634544 -0.19946046 0.004735931 -0.39562997 0.40773734 -0.28875262 0.7775187
0.7661172 -0.63214093 -0.25379568 0.18850522 0.14119205 0.8301928 -0.3613865 -0.43787497
-0.52792305 -0.757781 0.49968746 0.72909653 -0.01771737 -0.056333296 -0.7386552 0.46043146
0.15778893 -0.801212 -0.3862278 -0.47062737 -0.6363987 1.0198846 -0.854662 -0.5211553
-0.11879386 0.31841475 0.7353666 -0.9068727 -0.8968421 0.35262957 0.599651 0.048158463
-0.28901917 0.065000735 0.99979204 0.41639474 -0.040048253 -0.43511614 -0.84397215 -0.50394666
0.6806212 -0.5321063 0.3489535 0.4494377 -0.78010166 -0.049462833 -0.8233884 -0.097160816
-0.12283742 0.35402927 -0.18329881 0.3188883 3.3919478e-06 0.3394277 0.05084505 -0.8096586
-0.072267145 0.4214502 -0.5745473 0.1391066 0.072714575 1.0668203 -0.17684008 -0.3170451
-0.97250843 -0.22509292 -0.586903 -0.69767714 0.82021385 -0.12671283 -0.38069817 -0.62503564
-0.10012429 -0.40174714 0.7075459 -0.33970538 -0.6638197 -0.5002566 0.3554873 -0.35712498
-0.28378782 1.0894859 -0.8419058 -0.10876839 -0.98142433 -0.5070068 -0.92897326 0.9181001
0.28333187 0.79549605 0.22990812 0.69256794 0.4536021 0.2369078 -0.5150084 -0.4116993
00000000: 3dad 8abe e3b3 edbe 0214 42be 4e95 45bb
00000010: d88c 143f dfd2 383f dada 57bf e259 03bf
00000020: b9f9 d1be 884a 713f df7c 1c3e 744f a8be
00000030: 2ce8 ec3d f223 09bf 8d9e 4abf 330e d9be
00000040: 1bf1 223f bf1a 813f 3d87 51be af61 e9be
00000050: 0ad1 1e3f f3df 303f dd38 143f 0bfa 8dbf
00000060: e3b4 60bf caed cabe 5d3f 4cbe de2f 9b3b
00000070: 0390 cabe f3c2 d03e 62d7 93be 770b 473f
00000080: 4220 443f fdd3 21bf 82f1 81be 8307 413e
00000090: a694 103e 8487 543f a707 b9be 2631 e0be
000000a0: f725 07bf f0fd 41bf 09d7 ff3e 12a6 3a3f
000000b0: 0524 91bc bebd 66bd 8218 3dbf acbd eb3e
000000c0: 6c93 213e 3b1c 4dbf a6bf c5be 12f6 f0be
000000d0: 06eb 22bf 948b 823f 21cb 5abf 6f6a 05bf
000000e0: 324a f3bd 4207 a33e fc40 3c3f cf28 68bf
000000f0: 7297 65bf dd8b b43e ba82 193f cf41 453d
00000100: 52fa 93be 1b1f 853d 5ff2 7f3f b131 d53e
00000110: a309 24bd 8bc7 debe 8f0e 58bf a602 01bf
00000120: 313d 2e3f 1e38 08bf 08aa b23e b31c e63e
00000130: beb4 47bf 8a99 4abd 95c9 52bf 40fc c6bd
00000140: 2f92 fbbd 5343 b53e afb2 3bbe 5445 a33e
00000150: 38a1 6336 78c9 ad3e e642 503d c945 4fbf
00000160: cc00 94bd 52c8 d73e 8815 13bf f671 0e3e
00000170: 61eb 943d 918d 883f 9115 35be bc53 a2be
00000180: 50f6 78bf c27e 66be 463f 16bf f89a 32bf
00000190: 89f9 513f 02c1 01be dfea c2be 5602 20bf
000001a0: f70d cdbd cdb1 cdbe ba21 353f dded adbe
000001b0: 16f0 29bf d110 00bf 6e02 b63e 16d9 b6be
000001c0: a34c 91be 4674 8b3f 2387 57bf f6c1 debd
000001d0: a03e 7bbf 33cb 01bf 31d1 6dbf 9c08 6b3f
000001e0: e010 913e a1a5 4b3f 096d 6b3e 224c 313f
000001f0: 893e e83e f597 723e 97d7 03bf 40ca d2be

linear5.bias f4 [128]
0.96009356 -0.24342635 0.6721951 0.28130782 -0.56554997 0.70858127 -0.16807494 0.2917973
-0.5407691 -0.5867379 0.23464726 -1.1008186 -0.45038375 0.60964364 -0.9420849 1.0675998
-0.28591728 -0.6290263 0.24716502 -0.6670822 0.73992765 -0.86593956 1.1046623 -0.8506037
0.7690612 0.74843895 0.86138904 0.44858736 -0.6644317 0.57905114 -0.68419677 0.657846
0.75908864 0.917802 0.4455574 1.0186435 0.38645816 -0.33517414 -0.5393198 -0.29067093
-0.728775 -0.6792488 0.6134414 0.7643418 -1.0935271 0.4335651 0.40963447 0.9291988
1.0388895 1.1303198 0.04476324 0.46313113 0.6962511 0.40145573 0.6567454 0.5174088
-0.7696675 -0.3419913 1.0956029 -1.0349411 -0.9841097 -0.28101376 -0.831783 -0.51665866
-0.54961735 -0.34718016 0.24777164 0.23322912 -0.49418584 0.7053655 -0.5271712 0.5285091
0.9556956 -0.3437846 0.13068596 -0.5448538 0.4193843 -0.43971178 0.5905001 0.5362333
0.49862915 1.145221 0.78705186 0.26658988 1.0109308 1.1147897 0.3162339 1.0688336
-0.6564328 -0.31285438 -0.0045102574 0.80160356 -0.40095052 0.84692466 -0.5832056 -0.55282456
-0.034629114 -0.9278729 0.5720169 0.45923573 -0.380177 -0.93722594 0.8197319 -0.34183636
0.36302364 -0.86947525 -0.49835792 0.47605756 0.20275365 0.43681863 0.73178226 -0.659862
0.75287855 0.70596105 -0.64074266 0.6473999 -0.3374096 1.0690821 -0.5997228 0.5678888
0.09555597 0.86134213 0.95860994 -0.4193884 -0.49187908 -0.21659675 -0.67717975 1.0600342
00000000: b1c8 753f c244 79be fa14 2c3f 9407 903e
00000010: e2c7 10bf 9565 353f d61b 2cbe 7566 953e
00000020: d86f 0abf 7434 16bf 5f47 703e a0e7 8cbf
00000030: b398 e6be 9b11 1c3f 7a2c 71bf 1ca7 883f
00000040: c063 92be de07 21bf d418 7d3e e6c5 2abf
00000050: e66b 3d3f 37ae 5dbf 9365 8d3f 2ac1 59bf
00000060: 32e1 443f b299 3f3f fe83 5c3f 3ead e53e
00000070: 3218 2abf b23c 143f 8527 2fbf 9868 283f
00000080: a253 423f 12f5 6a3f 1920 e43e e962 823f
00000090: d8dd c53e f29b abbe dd10 0abf d2d2 94be
000000a0: 0091 3abf 40e3 2dbf 7f0a 1d3f e7ab 433f
000000b0: b2f8 8bbf 3ffc dd3e 9cbb d13e f9df 6d3f
000000c0: 55fa 843f 52ae 903f a959 373d 861f ed3e
000000d0: 833d 323f 9b8b cd3e 7720 283f e774 043f
000000e0: ee08 45bf 7c19 afbe b73c 8c3f f378 84bf
000000f0: 9dee 7bbf 09e1 8fbe bbef 54bf be43 04bf
00000100: b9b3 0cbf 99c1 b1be d9b7 7d3e 9dd3 6e3e
00000110: ed05 fdbe d592 343f b1f4 06bf 5f4c 073f
00000120: 78a8 743f 8904 b0be 8ad2 053e 8a7b 0bbf
00000130: 8ab9 d63e e721 e1be 042b 173f 9646 093f
00000140: 524c ff3e 9a96 923f 3b7c 493f 787e 883e
00000150: 2e66 813f 6eb1 8e3f 69e9 a13e 8acf 883f
00000160: fb0b 28bf 732e a0be c8ca 93bb e435 4d3f
00000170: 6349 cdbe 0ed0 583f f64c 15bf e985 0dbf
00000180: 42d7 0dbd 1489 6dbf b36f 123f f220 eb3e
00000190: 8fa6 c2be 0aee 6fbf f3d9 513f 2d05 afbe
000001a0: 3cde b93e ee95 5ebf c528 ffbe d1bd f33e
000001b0: a79e 4f3e b1a6 df3e 1556 3b3f b7ec 28bf
000001c0: a6bc 403f ddb9 343f b607 24bf 00bc 253f
000001d0: f3c0 acbe afd7 883f 6f87 19bf 2961 113f
000001e0: d9b2 c33d eb80 5c3f 7667 753f 14ba d6be
000001f0: 93d7 fbbe 8acb 5dbe a75b 2dbf 33af 873f
