onnx/pensieve_small_simple.onnx (onnx, 418766 bytes, 16 tensors)

bw f4 [128, 1]
-1.3382279 -0.2756275 0.051321387 -1.2052233 -0.0558658 0.42759746 1.2707806 1.0486424
0.19620238 0.69390756 0.29963678 0.71203136 0.1486193 0.32598853 -0.21889508 -0.3635881
0.23850203 0.6154755 -0.43700218 -0.7594314 -0.6020948 -0.8474529 -0.7375531 -0.6514139
-0.09000361 0.796733 -0.7152207 0.96350664 -0.23136906 -0.67474926 1.0508456 0.95311743
-0.68766713 0.9627603 0.26926708 0.5815752 0.9415517 0.6648335 -0.539247 -1.1152232
-0.9195576 -0.192824 -0.7704657 0.8192688 0.52933186 0.47572383 -1.0089521 -0.2916318
0.40113112 -0.9209471 -0.27780128 0.5607945 -0.6623019 -0.08650578 0.052591443 0.573287
0.3968654 0.13735779 0.76660514 -0.0083014965 0.9826988 0.033914547 -0.18737341 -0.36143136
-0.594058 -0.6033387 -0.027020784 0.8181424 -0.9223525 -0.024051905 -0.68703115 -0.92414427
0.45560837 -1.1429753 -0.14066067 -0.36489952 0.849323 -0.377573 -0.99128056 -1.0310328
-0.5336969 -0.9156239 -0.9271841 0.1339581 0.20101655 -0.37128592 -0.51624036 0.39910838
0.5362187 -0.5812057 0.6223728 -0.8184307 0.2767505 -0.89398897 0.88849616 -1.0069515
1.0734652 -0.70640135 -0.98170733 -0.73911285 0.20648746 -0.55391306 -0.13946295 0.5437335
-0.96340513 0.93222857 -1.0110071 -0.9723354 -0.17321265 -1.1392602 -0.33345354 -0.49993885
0.24945724 -0.7553568 -1.0027142 -0.7467793 -0.9982145 0.7768606 -0.95059335 -0.17590332
0.6239766 0.32697552 -0.45575967 1.0097089 -0.98092866 0.83332753 -0.8547816 0.9535718
00000000: 0d4b abbf 0c1f 8dbe 6036 523d c244 9abf
00000010: 89d3 64bd 0eee da3e f0a8 a23f ea39 863f
00000020: 47e9 483e eda3 313f fe69 993e b047 363f
00000030: a82f 183e f8e7 a63e 0826 60be 3828 babe
00000040: e039 743e cd8f 1d3f c0be dfbe 196a 42bf
00000050: e322 1abf acf2 58bf 48d0 3cbf 10c3 26bf
00000060: d053 b8bd b2f6 4b3f b418 37bf 5fa8 763f
00000070: 03ec 6cbe 5ebc 2cbf 1c82 863f 81ff 733f
00000080: f40a 30bf 7677 763f 60dd 893e 1de2 143f
00000090: 8809 713f 8732 2a3f 170c 0abf a2bf 8ebf
000000a0: 2068 6bbf a873 45be 3d3d 45bf 9abb 513f
000000b0: 4b82 073f 1392 f33e 5825 81bf c350 95be
000000c0: 0f61 cd3e 30c3 6bbf f83b 8ebe 3a90 0f3f
000000d0: 9e8c 29bf f129 b1bd 206a 573d f0c2 123f
000000e0: f131 cb3e 85a7 0c3e 3c40 443f 0003 08bc
000000f0: 2692 7b3f fbe9 0a3d d1de 3fbe 880d b9be
00000100: 2f14 18bf 6874 1abf b15a ddbc c871 513f
00000110: 4b1f 6cbf 8008 c5bc 46e1 2fbf b894 6cbf
00000120: 8045 e93e 044d 92bf 5a09 10be 1cd4 babe
00000130: 3b6d 593f 4051 c1be 90c4 7dbf e2f8 83bf
00000140: 5ca0 08bf 5466 6abf f05b 6dbf 502c 093e
00000150: 48d7 4d3e 3019 bebe 5428 04bf ef57 cc3e
00000160: a145 093f e6c9 14bf d353 1f3f ad84 51bf
00000170: 3eb2 8d3e 76dc 64bf 7c74 633f c9e3 80bf
00000180: 4f67 893f b8d6 34bf 2c51 7bbf 8036 3dbf
00000190: 7371 533e 3fcd 0dbf 60cf 0ebe 1e32 0b3f
000001a0: b8a1 76bf 88a6 6e3f ae68 81bf f9ea 78bf
000001b0: a85e 31be 47d3 91bf 6cba aabe fcf7 ffbe
000001c0: b871 7f3e 105f 41bf f058 80bf ee2c 3fbf
000001d0: fc8a 7fbf 56e0 463f 165a 73bf 0020 34be
000001e0: eebc 1f3f 5669 a73e 5559 e9be 243e 813f
000001f0: 241e 7bbf f454 553f f8d2 5abf 481d 743f

video_size f4 [128]
0.6849964 -0.26284075 -0.613896 0.98314184 0.88125986 0.81406 0.112378374 0.26316512
0.17813778 -0.35486928 0.29942217 0.3255423 -0.3572049 -0.5727196 -0.80894995 -0.088164926
-0.63731766 0.8494648 -0.6700566 0.9454779 0.45979345 -0.17957306 -0.57509136 -0.7531158
-0.6580714 -0.8775574 0.89801955 -0.9636392 0.32577273 1.0078882 0.076464646 -0.6825575
0.611384 0.1569336 -0.4780693 1.0925573 0.429929 0.10400743 0.63181096 0.7664144
0.35144392 -0.2977779 1.030398 0.124338984 0.402729 0.18226433 0.42636985 0.88978076
0.52193993 0.97930574 -0.1035099 0.77999353 0.9988366 0.19057935 -0.3623085 1.0956101
0.15545666 0.7183643 0.47666594 -0.59099925 0.21593615 0.74958116 1.0927404 -0.0042277575
0.9619865 -0.7663914 0.35188186 -0.94578075 0.96717286 -0.71422315 -0.1676557 -0.69157004
-0.6679379 0.44349834 0.58706915 -0.2400608 -0.62083846 0.15593725 -0.4369787 0.8010727
-0.257766 -0.6284871 -0.026013851 -0.5496136 -0.685537 -0.6308594 0.03197658 0.7782106
0.12660624 -0.42256522 -0.48527065 0.37080562 0.38471648 1.0023185 0.3668817 0.74986565
0.107456416 -0.866678 -0.402583 -0.55880916 0.42646217 0.64478457 -0.04927206 -0.36725077
-0.96199536 0.3749366 0.745721 0.7504725 -0.79260993 0.7229522 -0.32951236 -0.18592358
-0.11529662 -0.12714183 0.3400239 0.28531113 -0.6642349 0.38027018 0.041937113 0.51710564
-0.5594132 0.73816264 0.40092042 0.07771903 -0.969921 -0.86196077 -0.42033303 -0.51580936
00000000: ed5b 2f3f 1093 86be 4a28 1dbf 2faf 7b3f
00000010: 3f9a 613f 3c66 503f a226 e63d 94bd 863e
00000020: c069 363e 6db1 b5be dd4d 993e 7bad a63e
00000030: 90e3 b6be c09d 12bf 5817 4fbf d08f b4bd
00000040: 4027 23bf 8676 593f d488 2bbf d70a 723f
00000050: 0c6a eb3e 00e2 37be 3039 13bf 32cc 40bf
00000060: 5e77 28bf 9aa7 60bf 9ce4 653f 0fb1 76bf
00000070: afcb a63e 7b02 813f 7f99 9c3d 17bc 2ebf
00000080: a983 1c3f 34b3 203e 80c5 f4be ebd8 8b3f
00000090: a71f dc3e d901 d53d 5dbe 213f bc33 443f
000000a0: 75f0 b33e 5876 98be 15e4 833f 70a5 fe3d
000000b0: 7f32 ce3e 80a3 3a3e 264d da3e acc8 633f
000000c0: db9d 053f c8b3 7a3f 00fd d3bd a8ad 473f
000000d0: c1b3 7f3f 3c27 433e 8080 b9be f43c 8c3f
000000e0: 0830 1f3e b9e6 373f 8f0d f43e ba4b 17bf
000000f0: 5e1e 5d3e 8de4 3f3f ebde 8b3f 0089 8abb
00000100: bf44 763f 3a32 44bf dc29 b43e b01e 72bf
00000110: a498 773f 54d7 36bf f0ad 2bbe bc0a 31bf
00000120: fafd 2abf 3712 e33e 2a4a 163f 80d2 75be
00000130: 45ef 1ebf 04ae 1f3e acbb dfbe 1a13 4d3f
00000140: e8f9 83be 88e4 20bf 001b d5bc 7ab3 0cbf
00000150: 5a7f 2fbf 0080 21bf e0f9 023d cf38 473f
00000160: 11a5 013e 785a d8be 6575 f8be 3cda bd3e
00000170: 8ff9 c43e f94b 803f ebd7 bb3e 32f7 3f3f
00000180: 1c12 dc3d 9cde 5dbf 5c1f cebe 1e0e 0fbf
00000190: 4059 da3e 9a10 253f 80d1 49bd 4b08 bcbe
000001a0: 5445 76bf b1f7 bf3e 92e7 3e3f f71e 403f
000001b0: 7ce8 4abf 6513 393f d8b5 a8be c062 3ebe
000001c0: a220 ecbd 7831 02be 9d17 ae3e 4d14 923e
000001d0: 4c0b 2abf c6b2 c23e 40c6 2b3d 0961 043f
000001e0: b435 0fbf 3af8 3c3f 7145 cd3e 282b 9f3d
000001f0: be4c 78bf 76a9 5cbf e435 d7be 150c 04bf

linear1.weight f4 [128, 1]
-0.53545415 0.043501496 0.016048431 -0.83003676 0.92967975 1.241421 -0.82102394 -0.73672044
-0.5461701 -0.17136405 -0.20924017 0.36564505 -0.9660375 -0.053858496 0.09010482 1.0882348
-0.2709428 -0.29593325 -0.57862395 1.0906403 0.81711537 -0.6767101 1.1189815 -0.6800409
0.9303976 1.1985618 -0.50221795 0.6068662 -0.704224 1.1063036 -0.64081115 0.053290725
0.7795937 -0.5651671 0.43908662 -0.39230108 0.6970997 0.08157945 -0.14459264 -0.47276437
-0.15519206 0.5008314 -0.2600286 -0.6999748 1.220669 1.3202485 0.39715284 0.9565753
0.7420535 1.1380928 -0.7105608 0.24382584 -0.22244668 0.5383878 1.0897294 -0.25732827
0.80552506 -0.7650027 -0.5565759 0.6107565 0.85665095 0.96707785 1.2214373 -0.4833262
0.6144177 1.1552672 0.86101174 -0.531126 -0.3636242 -0.480725 0.78159535 -0.7917955
0.53048855 -0.20937037 -0.30909812 1.0364932 -0.5353769 -0.56935674 1.2827576 -0.40857896
0.858083 -0.67509353 0.13218966 0.9194759 -0.46031666 -0.7367054 -0.473929 -0.54462194
-0.5254003 -0.86735284 -0.16978645 0.16322741 0.56755453 0.33008155 -0.60730356 0.4032545
-0.43764544 0.43093148 -0.24211907 -0.8697669 1.2373236 1.3272575 -0.93891394 1.39325
0.7180697 -0.5902804 -0.9959363 -0.81043965 0.8690378 0.92756724 -0.8321315 0.9332527
-0.18192124 -0.03190422 1.0347872 -0.6417316 -0.63067496 -0.9687449 -0.58843136 -0.2560211
-0.97448564 -0.071774006 0.58953214 -0.26372322 1.4150455 -0.80773795 1.2976195 -0.8882654
00000000: 8613 09bf a02e 323d 0078 833c 4a7d 54bf
00000010: 7eff 6d3f e2e6 9e3f a02e 52bf b699 3cbf
00000020: ced1 0bbf 0f7a 2fbe 0e43 56be d435 bb3e
00000030: 3c4e 77bf ba9a 5cbd e088 b83d 474b 8b3f
00000040: 04b9 8abe 9084 97be b320 14bf 1a9a 8b3f
00000050: 792e 513f e03c 2dbf c93a 8f3f 2917 2ebf
00000060: 8a2e 6e3f 796a 993f 5b91 00bf 955b 1b3f
00000070: 0648 34bf 5b9b 8d3f 330c 24bf 6047 5a3d
00000080: 7493 473f cbae 10bf f6cf e03e b0db c8be
00000090: 2075 323f 2013 a73d 1810 14be 2c0e f2be
000000a0: abea 1ebe 7d36 003f 7822 85be 8c31 33bf
000000b0: e23e 9c3f e7fd a83f 9e57 cb3e 1ee2 743f
000000c0: 38f7 3d3f 06ad 913f 50e7 35bf 7bad 793e
000000d0: 10c9 63be c8d3 093f 417c 8b3f 88c0 83be
000000e0: e436 4e3f 38d7 43bf c27b 0ebf 8a5a 1c3f
000000f0: 7a4d 5b3f 6a92 773f 0f58 9c3f 8876 f7be
00000100: 7a4a 1d3f ccdf 933f 446b 5c3f e0f7 07bf
00000110: f32c babe 9621 f6be a216 483f 1cb3 4abf
00000120: 19ce 073f 3065 56be 1c42 9ebe cfab 843f
00000130: 760e 09bf 5dc1 11bf 6731 a43f 4331 d1be
00000140: 54ab 5b3f eed2 2cbf ba5c 073e c662 6b3f
00000150: a0ae ebbe ba98 3cbf d2a6 f2be 586c 0bbf
00000160: a280 06bf d60a 5ebf 80dc 2dbe 1625 273e
00000170: 414b 113f 7300 a93e 3f78 1bbf 6077 ce3e
00000180: 1013 e0be 0da3 dc3e 10ee 77be 0ba9 5ebf
00000190: 9f60 9e3f 93e3 a93f aa5c 70bf 0456 b23f
000001a0: 6ad3 373f 9e1c 17bf aef5 7ebf f978 4fbf
000001b0: 4379 5e3f 0c75 6d3f 9206 55bf a6e9 6e3f
000001c0: 9049 3abe 00ae 02bd e873 843f 8648 24bf
000001d0: ea73 21bf aaff 77bf 70a3 16bf 3315 83be
000001e0: e477 79bf 40fe 92bd 94eb 163f bb06 87be
000001f0: 3620 b53f eac7 4ebf 6518 a63f 5c65 63bf

linear1.bias f4 [128]
0.16333413 -0.7049216 -0.29764283 0.12830126 -0.067230865 0.08382041 -0.54376745 -0.9455776
0.53124017 0.36590093 0.121443905 -0.52588123 0.3096913 0.680485 -0.92537284 0.38308638
0.2952655 -0.7414429 0.5801802 -0.41172886 0.6631491 -0.05442214 0.7159599 0.47374758
-0.055195797 -0.03025825 0.34500176 -0.27507284 -0.06110716 0.33682135 0.65750116 -0.93567824
0.69459623 0.53139496 0.14052361 0.10282397 0.041859247 0.33944482 -0.10840905 0.078384995
0.32477096 0.8867465 -0.67946196 0.32193342 -0.12028397 -0.37021732 1.1553235 0.12236707
0.47711942 -0.059597697 -0.95783746 0.7132443 -0.27399123 0.12661287 -0.11079884 -0.99028957
0.014510379 -0.42754984 -0.054284334 0.69409144 0.6176935 0.55254585 0.5713455 -0.25276983
0.20523223 -0.2038522 -0.031304643 -0.78468776 0.43322822 0.5207726 0.27537483 -0.42021966
0.16185151 -0.5180814 -0.10567665 -0.3474888 0.06359649 0.55084765 -0.21449815 0.53290784
-0.51116097 0.6015889 1.0178239 1.0174404 0.016375184 -0.2573501 0.41000116 0.19879901
-0.1905688 -0.04057789 -0.10412717 0.5910325 0.2263054 0.528109 0.71295977 0.24081534
0.34479818 -0.79013765 -0.48354578 0.39928657 -0.20570919 -0.33247295 -0.2512288 -0.2611108
-0.5073005 0.05322337 -0.3945105 0.64501303 0.51465124 -0.22835355 -0.19999444 -0.17283241
-0.058848023 -0.121887565 0.36183822 -0.20155215 -0.7913871 -0.6132654 -0.3236798 0.21700658
-0.23878229 -0.20477796 0.06494181 0.35616535 -0.36889982 0.8397803 -0.22746895 -0.53004026
00000000: 1041 273e be75 34bf a464 98be 6861 033e
00000010: 56b0 89bd 09aa ab3d 5834 0bbf 6011 72bf
00000020: 5bff 073f 5e57 bb3e 95b7 f83d 27a0 06bf
00000030: dc8f 9e3e 4434 2e3f 3ce5 6cbf e623 c43e
00000040: 0a2d 973e 34cf 3dbf b186 143f 20ce d2be
00000050: 24c4 293f c0e9 5ebd 2649 373f 0b8f f23e
00000060: fd14 62bd 26e0 f7bc 12a4 b03e 59d6 8cbe
00000070: 804b 7abd d973 ac3e ff51 283f 9c88 6fbf
00000080: 0fd1 313f 8009 083f 6ce5 0f3e 6095 d23d
00000090: 9a74 2b3d b6cb ad3e 9005 debd 5088 a03d
000000a0: 6148 a63e d201 633f 38f1 2dbf 75d4 a43e
000000b0: 7157 f6bd 208d bdbe a4e1 933f 969b fa3d
000000c0: ff48 f43e b71c 74bd d634 75bf 2e97 363f
000000d0: 9448 8cbe cea6 013e 81ea e2bd 9e83 7dbf
000000e0: f1bc 6d3c d0e7 dabe 4059 5ebd faaf 313f
000000f0: 2921 1e3f a573 0d3f b343 123f 0c6b 81be
00000100: 6628 523e a2be 50be 4c39 00bd 4ce1 48bf
00000110: 17d0 dd3e 5a51 053f eefd 8c3e 0827 d7be
00000120: 67bc 253e fca0 04bf 006d d8bd 0dea b1be
00000130: e03e 823d 5a04 0d3f 67a5 5bbe a66c 083f
00000140: 72db 02bf bb01 1a3f 0e48 823f 7d3b 823f
00000150: 4025 863c 64c3 83be aceb d13e f891 4b3e
00000160: 7824 43be 0035 26bd a040 d5bd e84d 173f
00000170: 9abc 673e 2732 073f 8884 363f 4c98 763e
00000180: 6389 b03e 7646 4abf 5093 f7be 4a6f cc3e
00000190: 6ea5 52be e539 aabe 10a1 80be 51b0 85be
000001a0: 72de 01bf c000 5a3d 48fd c9be 931f 253f
000001b0: 2fc0 033f 83d5 69be 58cb 4cbe fbfa 30be
000001c0: a00a 71bd 30a0 f9bd dc42 b93e b063 4ebe
000001d0: 5898 4abf f6fe 1cbf 5cb9 a5be f936 5e3e
000001e0: 5883 74be 50b1 51be 3600 853d 4e5b b63e
000001f0: 70e0 bcbe d7fb 563f 9fed 68be b8b0 07bf

linear2.bias f4 [128]
-0.12120247 0.35937414 0.09479677 -0.007998675 -0.02119273 0.13245629 -0.040353946 0.40884316
-0.06307402 -0.21716028 0.17782153 0.34040806 0.37010783 0.29833668 -0.2626722 0.24824774
-0.11405374 0.45806068 0.35871226 -0.18845356 0.22832021 0.1523081 -0.26797557 0.047165763
-0.3300892 -0.0260548 -0.32708272 0.32700646 0.31025615 -0.17550057 -0.02075556 0.15427178
0.24906856 0.17204027 0.15395091 0.0582577 0.052564003 0.27689564 0.4083135 0.19293098
0.3588313 0.46068385 -0.28669807 -0.08230677 -0.09195393 -0.15569337 0.123724625 -0.18388501
0.42055282 0.35762516 0.09867536 0.14313057 0.27876806 0.43939874 -0.14543141 0.3794092
-0.038355347 0.4330128 -0.15806533 0.49519134 -0.15357283 -0.16059145 -0.22352965 -0.27058408
0.090003274 -0.26823005 -0.11531921 0.44029492 0.15257001 0.45550004 -0.29383302 -0.18357179
-0.17000835 0.30748302 0.27864978 -0.09759885 -0.021435134 -0.23979934 -0.17943865 -0.22287515
0.10244189 0.15463768 0.27999133 -0.045521617 0.06354423 0.16858809 0.16690451 0.15715167
0.33289823 -0.31571025 0.028356824 0.37319323 0.30662906 0.25735182 -0.32960466 0.32929647
-0.115518205 -0.21098152 -0.044277355 0.47117034 0.14547825 0.14241405 0.11167057 0.3292194
-0.00789933 -0.076547325 0.03317025 -0.2130227 -0.22896728 0.34013253 0.112236135 -0.12356371
0.2963094 0.13213469 0.3958338 0.017383907 0.003901103 0.28921413 -0.008698515 -0.14555597
0.17842577 -0.19937962 0.27626908 -0.34878874 0.3186181 0.16403107 0.1506441 0.09152045
00000000: 0039 f8bd e3ff b73e cf24 c23d e00c 03bc
00000010: 609c adbc 9fa2 073e 2e4a 25bd e453 d13e
00000020: f42c 81bd 445f 5ebe d916 363e f749 ae3e
00000030: c67e bd3e 96bf 983e f87c 86be a834 7e3e
00000040: 0295 e9bd ee86 ea3e 22a9 b73e f8f9 40be
00000050: c6cc 693e a8f6 1b3e 1834 89be e330 413d
00000060: 7401 a9be e070 d5bc 6377 a7be 646d a73e
00000070: e5d9 9e3e 6cb6 33be 9007 aabc 6cf9 1d3e
00000080: d40b 7f3e 532b 303e 4fa5 1d3e a09f 6e3d
00000090: 5a4d 573d 44c5 8d3e 780e d13e b38f 453e
000000a0: bcb8 b73e c1de eb3e 17ca 92be 7490 a8bd
000000b0: 5852 bcbd 156e 1fbe 5663 fd3d 5a4c 3cbe
000000c0: b352 d73e a51a b73e 4f16 ca3d d290 123e
000000d0: b0ba 8e3e dff8 e03e f9eb 14be ec41 c23e
000000e0: 7f1a 1dbd dbb3 dd3e e1db 21be b889 fd3e
000000f0: 3242 1dbe 1672 24be f5e4 64be ff89 8abe
00000100: a353 b83d 7355 89be 7a2c ecbd 566e e13e
00000110: 503b 1c3e 4d37 e93e 4871 96be 3efa 3bbe
00000120: ab16 2ebe 6a6e 9d3e 2fab 8e3e e8e1 c7bd
00000130: bc98 afbc f58d 75be c4be 37be 6239 64be
00000140: 0ecd d13d 5759 1e3e 065b 8f3e e074 3abd
00000150: 7a23 823d 5ba2 2c3e 04e9 2a3e 5eec 203e
00000160: a371 aa3e c6a4 a1be 924c e83c 2f13 bf3e
00000170: 7cfe 9c3e 9ec3 833e f1c1 a8be 8c99 a83e
00000180: cf94 ecbd 8a0b 58be 2c5c 35bd 3d3d f13e
00000190: 40f8 143e fdd4 113e 8ab3 e43d 728f a83e
000001a0: 316c 01bc d8c4 9cbd 87dd 073d 9f22 5abe
000001b0: 6676 6abe da25 ae3e 0fdc e53d f80e fdbd
000001c0: deb5 973e 514e 073e baaa ca3e b268 8e3c
000001d0: a6a9 7f3b e013 943e 3784 0ebc a00c 15be
000001e0: 3fb5 363e 2c2a 4cbe 2473 8d3e 7094 b2be
000001f0: e921 a33e c3f7 273e 7242 1a3e 136f bb3d

linear3.bias f4 [128]
0.22686432 0.041154422 -0.26874277 -0.06265053 0.25123656 -0.054551665 -0.13046283 0.1577447
0.27851745 -0.2505942 0.34930614 0.09630791 0.13378555 0.19918342 0.43111297 -0.129569
-0.12328511 -0.073650114 0.060759306 -0.12383541 -0.03631873 0.10128733 -0.019453917 0.08629589
-0.06417367 0.10437774 -0.086513415 -0.17422245 0.15616387 0.19128247 0.25692865 0.020802207
0.07426525 -0.26462898 0.19150895 0.22358635 0.15781054 -0.1269648 -0.02669345 0.22351116
0.25956973 -0.36080447 0.20049566 0.30860668 0.07674012 0.34971493 -0.1436339 -0.028800996
0.27413887 0.007284044 0.24000971 -0.042370368 0.27626508 0.05652708 -0.15891711 -0.18338545
-0.14704856 0.03154159 0.22165793 -0.1469728 0.034133982 -0.17357403 -0.1799742 0.16168556
0.2297174 -0.061500937 -0.06078178 0.38616094 -0.3014084 -0.31854102 0.1343831 0.2093006
0.21626997 0.085767515 -0.20658879 0.19736615 0.32264185 0.33489904 0.2935981 -0.101114705
0.14045452 -0.24376029 0.5213147 -0.12208644 -0.10781669 0.23937751 0.24179721 0.18452233
-0.08965389 0.16819206 -0.02634469 0.055869915 -0.18550453 -0.38811472 0.028994842 -0.020443026
0.03698993 -0.053293023 0.058612548 -0.22731905 0.23867898 -0.23239604 -0.109910645 -0.09090627
0.29105344 -0.2737486 -0.050061688 0.3242154 -0.12812653 -0.09252026 -0.06533318 0.29407734
0.19447641 -0.19691938 -0.0976436 -0.10009316 -0.059398986 0.03449479 0.23911196 0.08235134
-0.17909111 0.19545367 0.19617262 0.28599754 0.090683915 -0.08519563 -0.050900783 -0.36005825
00000000: 1f4f 683e 8a91 283d a798 89be ec4e 80bd
00000010: 14a2 803e 9171 5fbd 0c98 05be d487 213e
00000020: d799 8e3e e24d 80be 41d8 b23e 153d c53d
00000030: 14ff 083e bdf6 4b3e d7ba dc3e bcad 04be
00000040: e77c fcbd dfd5 96bd c0de 783d 6b9d fdbd
00000050: f3c2 14bd bb6f cf3d d25d 9fbc e6bb b03d
00000060: 7c6d 83bd ffc3 d53d f22d b1bd 5f67 32be
00000070: 6ce9 1f3e 8ddf 433e 278c 833e 6469 aa3c
00000080: 6118 983d 737d 87be ec1a 443e d2f3 643e
00000090: 1699 213e 0f03 02be 39ac dabc 1ce0 643e
000000a0: 53e6 843e 5dbb b8be bc4e 4d3e b201 9e3e
000000b0: ed29 9d3d d60d b33e c414 13be 11f0 ebbc
000000c0: ee5b 8c3e fdae ee3b 1bc5 753e 8d8c 2dbd
000000d0: 9e72 8d3e f088 673d 2bbb 22be 65c9 3bbe
000000e0: e693 16be c131 013d 4cfa 623e 0a80 16be
000000f0: 13d0 0b3d 64bd 31be 284b 38be e690 253e
00000100: 0a3b 6b3e 68e8 7bbd 51f6 78bd e3b6 c53e
00000110: 3452 9abe cf17 a3be b99b 093e e652 563e
00000120: e075 5d3e e1a6 af3d 038c 53be 5a1a 4a3e
00000130: 5031 a53e e377 ab3e 7d52 963e 3a15 cfbd
00000140: 4fd3 0f3e 4c9c 79be e174 053f 7508 fabd
00000150: ffce dcbd 611f 753e b099 773e 6cf3 3c3e
00000160: 759c b7bd 8a3a 2c3e d2d0 d7bc dad7 643d
00000170: e6f4 3dbe f9b6 c6be 9786 ed3c 2278 a7bc
00000180: c182 173d c949 5abd b613 703d 53c6 68be
00000190: 4368 743e 3af9 6dbe d518 e1bd 112d babd
000001a0: f504 953e c728 8cbe 7c0d 4dbd 90ff a53e
000001b0: 9a33 03be 437b bdbd 67cd 85bd 4e91 963e
000001c0: d324 473e 3ca5 49be 5ef9 c7bd a5fd ccbd
000001d0: 5a4c 73bd 694a 0d3d c4d9 743e d2a7 a83d
000001e0: a963 37be 0225 483e 7ae1 483e 456e 923e
000001f0: 7db8 b93d 0c7b aebd 577d 50bd 8e59 b8be

linear4.bias f4 [128]
-0.22893059 0.20358884 0.18687542 0.23726112 -0.21592946 -0.08077416 0.3013513 -0.19815865
-0.11490633 0.40108228 0.34613305 -0.18317246 -0.0778434 -0.32904023 -0.27917886 0.09169925
-0.30506355 -0.015103221 -0.3335865 -0.36308262 -0.31206852 0.39529973 -0.01878422 -0.12616932
0.21448922 0.2486617 -0.16339791 -0.14220014 -0.15668148 0.35990593 0.32727644 0.067473926
0.34258738 0.2410158 -0.20219743 -0.2651732 0.34445456 0.5050734 -0.37980494 0.45301744
0.36726928 -0.042008143 -0.36964628 0.31246263 -0.26350304 0.2671518 0.17884552 0.18178758
-0.12829465 -0.24655092 -0.2885979 -0.2465718 0.14563592 0.2523132 0.20108074 -0.38753572
-0.12128578 -0.3183229 -0.26176605 0.2666676 0.11823298 -0.086153805 0.35831615 0.38285887
-0.037705928 0.23195034 -0.23315075 -0.40632683 0.05130225 0.14431119 0.093061626 0.16904783
0.39336935 0.23075838 -0.23614435 0.054991536 0.35214484 -0.028294116 -0.026900351 -0.32863277
-0.0020844978 0.4580287 -0.05122766 -0.24643047 0.22242606 -0.19166628 0.26013443 0.14573401
-0.39834788 0.33173218 -0.018493265 0.15202875 0.37924683 -0.11415714 0.27590507 0.47512272
0.35646445 -0.43544847 -0.08867686 -0.21997057 0.25491887 0.06327469 0.43300262 -0.38600263
0.23455194 -0.24988656 0.05756396 -0.2951871 0.1111949 0.43458346 0.44756123 0.40577656
0.2036286 0.19944017 0.2562257 -0.27242944 -0.24776597 -0.2651543 -0.2700438 0.10830271
-0.3610146 0.13384879 0.5286629 -0.28156263 -0.3887188 0.3071416 -0.174114 0.04469736
00000000: c86c 6abe 9879 503e 455c 3f3e 94f4 723e
00000010: 9d1c 5dbe ec6c a5bd b84a 9a3e 1aea 4abe
00000020: 0354 ebbd a85a cd3e 5a38 b13e 9091 3bbe
00000030: 5c6c 9fbd f677 a8be 88f0 8ebe d1cc bb3d
00000040: 4a31 9cbe 8073 77bc dacb aabe f7e5 b9be
00000050: 72c7 9fbe ba64 ca3e 5de1 99bc 8832 01be
00000060: 10a3 5b3e 2ca1 7e3e c851 27be ea9c 11be
00000070: 1c71 20be 9745 b83e c790 a73e c52f 8a3d
00000080: 9d67 af3e d9cc 763e d80c 4fbe c8c4 87be
00000090: 595c b03e 7e4c 013f cb75 c2be e7f1 e73e
000000a0: b80a bc3e bb10 2cbd 4742 bdbe 1afb 9f3e
000000b0: dfe9 86be 1fc8 883e 4823 373e 8626 3a3e
000000c0: ac5f 03be d877 7cbe 1bc3 93be 517d 7cbe
000000d0: 9521 153e 322f 813e 1ce8 4d3e 156b c6be
000000e0: ae64 f8bd 38fb a2be 3306 86be a888 883e
000000f0: 2224 f23d 6871 b0bd 3775 b73e 1406 c43e
00000100: 8871 1abd 6484 6d3e 12bf 6ebe 120a d0be
00000110: 4f22 523d 50c6 133e 1897 be3d e01a 2d3e
00000120: b567 c93e ed4b 6c3e d3cf 71be ce3e 613d
00000130: 544c b43e 10c9 e7bc 205e dcbc 8e42 a8be
00000140: 129c 08bb bd82 ea3e 18d4 51bd 4558 7cbe
00000150: a8c3 633e 2a44 44be 5730 853e 4c3b 153e
00000160: 41f4 cbbe cdd8 a93e 307f 97bc 6dad 1b3e
00000170: a42c c23e 38cb e9bd 6e43 8d3e 4943 f33e
00000180: 8282 b63e 1af3 debe 379c b5bd f73f 61be
00000190: ba84 823e 2996 813d 85b2 dd3e 23a2 c5be
000001a0: 622e 703e 43e2 7fbe 30c8 6b3d c322 97be
000001b0: 27ba e33d b981 de3e bf26 e53e f2c1 cf3e
000001c0: 0484 503e 0b3a 4c3e 0430 833e df7b 8bbe
000001d0: 5db6 7dbe 4ec2 87be 2e43 8abe d0cd dd3d
000001e0: e8d6 b8be a80f 093e 7456 073f fa28 90be
000001f0: 2706 c7be aa41 9d3e f14a 32be 9414 373d

linear5.weight f4 [128, 1]
-0.27085295 -0.46426305 -0.18952945 -0.0030148807 0.5802741 0.72196764 -0.84318316 -0.51309025
-0.41010836 0.9425435 0.1528201 -0.32873118 0.11567721 -0.53570473 -0.7914818 -0.42393646
0.6364915 1.0086287 -0.20461746 -0.4558234 0.6203772 0.6909172 0.57899266 -1.1091932
-0.8777601 -0.39634544 -0.19946046 0.004735931 -0.39562997 0.40773734 -0.28875262 0.7775187
0.7661172 -0.63214093 -0.25379568 0.18850522 0.14119205 0.8301928 -0.3613865 -0.43787497
-0.52792305 -0.757781 0.49968746 0.72909653 -0.01771737 -0.056333296 -0.7386552 0.46043146
0.15778893 -0.801212 -0.3862278 -0.47062737 -0.6363987 1.0198846 -0.854662 -0.5211553
-0.11879386 0.31841475 0.7353666 -0.9068727 -0.8968421 0.35262957 0.599651 0.048158463
-0.28901917 0.065000735 0.99979204 0.41639474 -0.040048253 -0.43511614 -0.84397215 -0.50394666
0.6806212 -0.5321063 0.3489535 0.4494377 -0.78010166 -0.049462833 -0.8233884 -0.097160816
-0.12283742 0.35402927 -0.18329881 0.3188883 3.3919478e-06 0.3394277 0.05084505 -0.8096586
-0.072267145 0.4214502 -0.5745473 0.1391066 0.072714575 1.0668203 -0.17684008 -0.3170451
-0.97250843 -0.22509292 -0.586903 -0.69767714 0.82021385 -0.12671283 -0.38069817 -0.62503564
-0.10012429 -0.40174714 0.7075459 -0.33970538 -0.6638197 -0.5002566 0.3554873 -0.35712498
-0.28378782 1.0894859 -0.8419058 -0.10876839 -0.98142433 -0.5070068 -0.92897326 0.9181001
0.28333187 0.79549605 0.22990812 0.69256794 0.4536021 0.2369078 -0.5150084 -0.4116993
00000000: 3dad 8abe e3b3 edbe 0214 42be 4e95 45bb
00000010: d88c 143f dfd2 383f dada 57bf e259 03bf
00000020: b9f9 d1be 884a 713f df7c 1c3e 744f a8be
00000030: 2ce8 ec3d f223 09bf 8d9e 4abf 330e d9be
00000040: 1bf1 223f bf1a 813f 3d87 51be af61 e9be
00000050: 0ad1 1e3f f3df 303f dd38 143f 0bfa 8dbf
00000060: e3b4 60bf caed cabe 5d3f 4cbe de2f 9b3b
00000070: 0390 cabe f3c2 d03e 62d7 93be 770b 473f
00000080: 4220 443f fdd3 21bf 82f1 81be 8307 413e
00000090: a694 103e 8487 543f a707 b9be 2631 e0be
000000a0: f725 07bf f0fd 41bf 09d7 ff3e 12a6 3a3f
000000b0: 0524 91bc bebd 66bd 8218 3dbf acbd eb3e
000000c0: 6c93 213e 3b1c 4dbf a6bf c5be 12f6 f0be
000000d0: 06eb 22bf 948b 823f 21cb 5abf 6f6a 05bf
000000e0: 324a f3bd 4207 a33e fc40 3c3f cf28 68bf
000000f0: 7297 65bf dd8b b43e ba82 193f cf41 453d
00000100: 52fa 93be 1b1f 853d 5ff2 7f3f b131 d53e
00000110: a309 24bd 8bc7 debe 8f0e 58bf a602 01bf
00000120: 313d 2e3f 1e38 08bf 08aa b23e b31c e63e
00000130: beb4 47bf 8a99 4abd 95c9 52bf 40fc c6bd
00000140: 2f92 fbbd 5343 b53e afb2 3bbe 5445 a33e
00000150: 38a1 6336 78c9 ad3e e642 503d c945 4fbf
00000160: cc00 94bd 52c8 d73e 8815 13bf f671 0e3e
00000170: 61eb 943d 918d 883f 9115 35be bc53 a2be
00000180: 50f6 78bf c27e 66be 463f 16bf f89a 32bf
00000190: 89f9 513f 02c1 01be dfea c2be 5602 20bf
000001a0: f70d cdbd cdb1 cdbe ba21 353f dded adbe
000001b0: 16f0 29bf d110 00bf 6e02 b63e 16d9 b6be
000001c0: a34c 91be 4674 8b3f 2387 57bf f6c1 debd
000001d0: a03e 7bbf 33cb 01bf 31d1 6dbf 9c08 6b3f
000001e0: e010 913e a1a5 4b3f 096d 6b3e 224c 313f
000001f0: 893e e83e f597 723e 97d7 03bf 40ca d2be

linear5.bias f4 [128]
0.96009356 -0.24342635 0.6721951 0.28130782 -0.56554997 0.70858127 -0.16807494 0.2917973
-0.5407691 -0.5867379 0.23464726 -1.1008186 -0.45038375 0.60964364 -0.9420849 1.0675998
-0.28591728 -0.6290263 0.24716502 -0.6670822 0.73992765 -0.86593956 1.1046623 -0.8506037
0.7690612 0.74843895 0.86138904 0.44858736 -0.6644317 0.57905114 -0.68419677 0.657846
0.75908864 0.917802 0.4455574 1.0186435 0.38645816 -0.33517414 -0.5393198 -0.29067093
-0.728775 -0.6792488 0.6134414 0.7643418 -1.0935271 0.4335651 0.40963447 0.9291988
1.0388895 1.1303198 0.04476324 0.46313113 0.6962511 0.40145573 0.6567454 0.5174088
-0.7696675 -0.3419913 1.0956029 -1.0349411 -0.9841097 -0.28101376 -0.831783 -0.51665866
-0.54961735 -0.34718016 0.24777164 0.23322912 -0.49418584 0.7053655 -0.5271712 0.5285091
0.9556956 -0.3437846 0.13068596 -0.5448538 0.4193843 -0.43971178 0.5905001 0.5362333
0.49862915 1.145221 0.78705186 0.26658988 1.0109308 1.1147897 0.3162339 1.0688336
-0.6564328 -0.31285438 -0.0045102574 0.80160356 -0.40095052 0.84692466 -0.5832056 -0.55282456
-0.034629114 -0.9278729 0.5720169 0.45923573 -0.380177 -0.93722594 0.8197319 -0.34183636
0.36302364 -0.86947525 -0.49835792 0.47605756 0.20275365 0.43681863 0.73178226 -0.659862
0.75287855 0.70596105 -0.64074266 0.6473999 -0.3374096 1.0690821 -0.5997228 0.5678888
0.09555597 0.86134213 0.95860994 -0.4193884 -0.49187908 -0.21659675 -0.67717975 1.0600342
00000000: b1c8 753f c244 79be fa14 2c3f 9407 903e
00000010: e2c7 10bf 9565 353f d61b 2cbe 7566 953e
00000020: d86f 0abf 7434 16bf 5f47 703e a0e7 8cbf
00000030: b398 e6be 9b11 1c3f 7a2c 71bf 1ca7 883f
00000040: c063 92be de07 21bf d418 7d3e e6c5 2abf
00000050: e66b 3d3f 37ae 5dbf 9365 8d3f 2ac1 59bf
00000060: 32e1 443f b299 3f3f fe83 5c3f 3ead e53e
00000070: 3218 2abf b23c 143f 8527 2fbf 9868 283f
00000080: a253 423f 12f5 6a3f 1920 e43e e962 823f
00000090: d8dd c53e f29b abbe dd10 0abf d2d2 94be
000000a0: 0091 3abf 40e3 2dbf 7f0a 1d3f e7ab 433f
000000b0: b2f8 8bbf 3ffc dd3e 9cbb d13e f9df 6d3f
000000c0: 55fa 843f 52ae 903f a959 373d 861f ed3e
000000d0: 833d 323f 9b8b cd3e 7720 283f e774 043f
000000e0: ee08 45bf 7c19 afbe b73c 8c3f f378 84bf
000000f0: 9dee 7bbf 09e1 8fbe bbef 54bf be43 04bf
00000100: b9b3 0cbf 99c1 b1be d9b7 7d3e 9dd3 6e3e
00000110: ed05 fdbe d592 343f b1f4 06bf 5f4c 073f
00000120: 78a8 743f 8904 b0be 8ad2 053e 8a7b 0bbf
00000130: 8ab9 d63e e721 e1be 042b 173f 9646 093f
00000140: 524c ff3e 9a96 923f 3b7c 493f 787e 883e
00000150: 2e66 813f 6eb1 8e3f 69e9 a13e 8acf 883f
00000160: fb0b 28bf 732e a0be c8ca 93bb e435 4d3f
00000170: 6349 cdbe 0ed0 583f f64c 15bf e985 0dbf
00000180: 42d7 0dbd 1489 6dbf b36f 123f f220 eb3e
00000190: 8fa6 c2be 0aee 6fbf f3d9 513f 2d05 afbe
000001a0: 3cde b93e ee95 5ebf c528 ffbe d1bd f33e
000001b0: a79e 4f3e b1a6 df3e 1556 3b3f b7ec 28bf
000001c0: a6bc 403f ddb9 343f b607 24bf 00bc 253f
000001d0: f3c0 acbe afd7 883f 6f87 19bf 2961 113f
000001e0: d9b2 c33d eb80 5c3f 7667 753f 14ba d6be
000001f0: 93d7 fbbe 8acb 5dbe a75b 2dbf 33af 873f

linear6.weight f4 [128, 768]
0.045490324 0.031073622 0.013976477 0.0004288977 0.010094125 0.033205993 0.011633152 -0.030154021
-0.017025465 0.009512954 -0.012367837 0.0056242202 0.010459214 -0.0023035444 -0.0106381625 -0.035232585
0.0330498 0.024595203 -0.0028624907 -0.0009786914 -0.022934316 0.013269749 -0.00091393664 -0.023162272
-0.03583414 0.005520683 -0.016809532 0.026715007 -0.026613152 -0.01978503 -0.023033902 0.023272127
-0.01712509 -0.0003424415 -0.008156732 0.029907715 0.039149925 -0.0012880281 0.01939593 0.01286233
0.04223565 0.006281752 -0.01366679 0.018771492 0.0047192867 -0.0007080198 0.038882237 -0.0064727236
0.015332675 -0.01977252 0.01701238 -0.027055921 -0.018555958 0.008584128 -0.02163868 -0.026646817
-0.014589474 0.0051273247 0.021601556 -0.021607421 -0.005674933 -0.012640221 -0.008510472 -0.0021190532
-0.0067184605 -0.030559096 0.024063168 -0.0055655055 0.03268524 -0.0055488385 0.016944956 0.02887173
0.00026559457 0.04715148 0.0009733773 -0.03116103 0.044894956 0.022156272 -0.01663406 -0.02925381
-0.030722475 0.031173237 -0.030454665 0.028208822 -0.026512675 0.008212037 -0.008563185 0.036922853
-0.03924278 0.02513288 0.013816896 0.040000334 0.016689718 -0.016359253 0.008298806 -0.024802372
-0.025582317 0.00784415 -0.01693117 -0.019121818 -0.023191992 0.016324118 -0.007237252 0.042111196
0.023215048 0.012535728 -0.017163878 0.03128344 -0.023624852 0.0030383796 -0.0093250405 -0.019843213
0.06814547 -0.00088633597 0.010192982 -0.0071681608 -0.033725884 0.041573677 0.028070316 -0.026762571
0.0077326125 -0.028070841 -0.018922271 -0.031782664 0.029485859 -0.035907574 0.026743174 0.07112534
-0.010780295 -0.002960056 0.004765209 0.022911027 -0.0830556 0.0077608004 0.016087245 -0.027511507
-0.021659281 -0.008574849 0.03814778 -0.07309472 0.02899675 0.011464972 -0.018516004 -0.027498208
0.0006232137 0.021118194 0.044684853 -0.075617634 0.025071805 -0.016891591 -0.034655128 -0.0007128179
-0.0817479 -0.060460187 0.020444727 -0.1026989 0.015544154 -0.034922376 0.03245747 0.008876111
-0.032875385 0.049936365 -0.04493981 0.00095582753 -0.031839803 -0.017402323 -0.0065415464 0.009621106
0.025477467 0.021425063 0.02454216 -0.028505933 -0.0692985 -0.07951241 -0.026017819 0.006387087
0.0228222 -0.054301176 0.014111135 0.02032952 0.0031547584 -0.0075797224 -0.028042763 0.008728784
-0.053787097 0.018662203 -0.0022415258 -0.030574955 0.032279514 -0.036883682 0.010775704 0.023621783
-0.026997076 -0.117377415 -0.041243806 -0.024859643 -0.036639024 -0.019380566 -0.045690693 0.0042809807
-0.0063834796 0.011434231 -0.024409648 -0.05847118 -0.014843844 0.010704955 -0.07866391 -0.033602484
-0.07544831 -0.0030620655 0.039395053 0.02985235 0.034428842 -0.026288725 0.049843933 -0.02688732
-0.025088146 0.0074818954 -0.005438244 -0.020923244 -0.026782276 0.011606796 0.033767913 -0.005481525
0.02563246 -0.027934995 -0.032197513 0.0060894904 -0.050681315 -0.11079846 -0.007131759 -0.09474333
-0.08581462 0.017706864 0.02073707 -0.016554406 -0.0114067495 -0.05467388 0.017450009 -0.08642863
0.024465512 -0.028960185 -0.009373796 0.00803395 -0.0061686337 -0.027990485 0.0132074915 0.038207345
-0.011419611 0.023706928 -0.024568455 -0.0021990656 -0.097634725 0.02460741 -0.038849525 -0.03285925
00000000: 1054 3a3d 1c8e fe3c 98fd 643c addd e039
00000010: d461 253c 0203 083d fa98 3e3c 9105 f7bc
00000020: fd78 8bbc 39dc 1b3c 78a2 4abc 614b b83b
00000030: 205d 2b3c 10f7 16bb b04b 2ebc 0b50 10bd
00000040: 3a5f 073d e17b c93c a098 3bbb 6f47 80ba
00000050: bfe0 bbbc 5c69 593c 4095 6fba cebe bdbc
00000060: d2c6 12bd d8e6 b43b 25b4 89bc 6ed9 da3c
00000070: d303 dabc 3714 a2bc 98b1 bcbc 30a5 be3c
00000080: eb49 8cbc b889 b3b9 d0a3 05bc 0601 f53c
00000090: ac5b 203d 0dd3 a8ba 37e4 9e3c 86bc 523c
000000a0: 4aff 2c3d 28d7 cd3b acea 5fbc acc6 993c
000000b0: 3fa4 9a3b 689a 39ba fb42 1f3d 2419 d4bb
000000c0: e635 7b3c fbf9 a1bc 8c5d 8b3c 61a4 ddbc
000000d0: aa02 98bc 71a4 0c3c 9a43 b1bc 6d4a dabc
000000e0: b008 6fbc 1e03 a83b bff5 b03c 0c02 b1bc
000000f0: caf4 b9bb ee18 4fbc 826f 0bbc d0df 0abb
00000100: 8826 dcbb 1257 fabc 1f20 c53c d85e b6bb
00000110: f5e0 053d 08d3 b5bb 26d0 8a3c 6884 ec3c
00000120: 803f 8b39 e921 413d 3f2a 7f3a 6b45 ffbc
00000130: c6e3 373d 1281 b53c 2744 88bc b0a5 efbc
00000140: b3ad fbbc 045f ff3c 107c f9bc 3016 e73c
00000150: 1c31 d9bc c88b 063c 9a4c 0cbc 6b3c 173d
00000160: 0abd 20bd 78e3 cd3c 4360 623c 64d7 233d
00000170: e0b8 883c d703 86bc b7f7 073c 582e cbbc
00000180: 0292 d1bc c084 003c 3db3 8abc 5ca5 9cbc
00000190: 22fd bdbc 28ba 853c 7826 edbb ca7c 2c3d
000001a0: 7c2d be3c a762 4d3c 439b 8cbc 1023 003d
000001b0: e888 c1bc 8d1f 473b 0ec8 18bc 3c8e a2bc
000001c0: da8f 8b3d 0059 68ba 7700 273c e4e2 eabb
000001d0: 2724 0abd 2949 2a3d b8f3 e53c 2e3d dbbc
000001e0: db61 fd3b d2f4 e5bc e102 9bbc 8a2e 02bd
000001f0: 548c f13c d213 13bd 8014 db3c 2aaa 913d
00000200: d69f 30bc 80fd 41bb 7825 9c3b e8af bb3c
00000210: 0e19 aabd 504e fe3b 66c9 833c d05f e1bc
00000220: ce6e b1bc 867d 0cbc d940 1c3d afb2 95bd
00000230: 988a ed3c 94d7 3b3c e0ae 97bc ec43 e1bc
00000240: 2a5f 233a 1000 ad3c 7707 373d 6bdd 9abd
00000250: 6363 cd3c 3c60 8abc 89f2 0dbd 66dc 3aba
00000260: 716b a7bd 1aa5 77bd b37b a73c cd53 d2bd
00000270: e8ac 7e3c c40a 0fbd 20f2 043d 1c6d 113c
00000280: 57a8 06bd 138a 4c3d ce12 38bd 8090 7a3a
00000290: 746a 02bd 518f 8ebc 785a d6bb d8a1 1d3c
000002a0: 1fb6 d03c 9d83 af3c a40c c93c 4685 e9bc
000002b0: 5fec 8dbd 67d7 a2bd 5223 d5bc c54a d13b
000002c0: 9ff5 ba3c e96a 5ebd 6432 673c 188a a63c
000002d0: 10c0 4e3b 525f f8bb f0b9 e5bc 2c03 0f3c
000002e0: dc4f 5cbd 7ae1 983c 90e6 12bb 5478 fabc
000002f0: 8637 043d 5813 17bd 948c 303c 7882 c13c
00000300: f928 ddbc 9263 f0bd 44ef 28bd 73a6 cbbc
00000310: cd12 16bd fec3 9ebc 2a26 3bbd 7847 8c3b
00000320: 822c d1bb a456 3b3c bef6 c7bc 7a7f 6fbd
00000330: 9833 73bc d663 2f3c 8b1a a1bd c2a2 09bd
00000340: a584 9abd efac 48bb b55c 213d ea8c f43c
00000350: 4205 0d3d 745b d7bc 2729 4c3d cc42 dcbc
00000360: a885 cdbc b02a f53b 4c33 b2bb 3967 abbc
00000370: 8166 dbbc 6e2a 3e3c 3950 0a3d 5d9e b3bb
00000380: 2afb d13c eed7 e4bc 8ae1 03bd 598a c73b
00000390: 3697 4fbd 4eea e2bd 88b1 e9bb ca08 c2bd
000003a0: 93bf afbd fc0d 913c cae0 a93c 1b9d 87bc
000003b0: 60e3 3abc b8f1 5fbd 52f3 8e3c 7e01 b1bd
000003c0: e66b c83c e93d edbc 8d94 19bc d4a0 033c
000003d0: 4022 cabb 4d4c e5bc 3c64 583c 4e7f 1c3d
000003e0: 5219 3bbc 0835 c23c c943 c9bc 331e 10bb
000003f0: b7f4 c7bd 7b95 c93c ae20 1fbd 6c97 06bd

linear6.bias f4 [128]
0.009888209 -0.018139634 0.020591468 -0.0075974474 -0.005052084 0.19179048 0.030133631 0.0033883322
-0.04152858 -0.02982298 0.034040492 -0.0122647565 0.0040984917 0.017353544 -0.014721246 -0.040031567
0.0037678499 0.0018049057 -0.044283092 0.017758649 0.0063799317 -0.053555667 0.017821176 -0.03356733
0.014406565 0.08992699 -0.0025691101 -0.02120929 0.0044459617 0.018901546 0.038608987 0.008893508
-0.05159635 0.029151402 0.010355123 -0.01437238 0.00993156 0.025396857 -0.035586365 -0.004929245
-0.03418646 -0.0274923 -0.021901354 -0.013494421 0.07031658 -0.02743837 0.029377379 0.01576432
-0.03733581 0.023930494 -0.0006886609 0.010817772 0.02237888 -0.0067284354 -0.0031031426 0.032611907
0.0012394977 -0.0057940767 0.015488854 -0.014785198 -0.023182683 -0.017520286 0.033457838 -0.070047356
0.0019509101 0.09835143 -0.026745005 -0.032415513 0.018293684 0.032854028 0.10280617 -0.0021812394
-0.010724744 -0.02932845 -0.0042265635 0.06133471 -0.027869135 0.020729266 -0.020138841 -0.007190159
-0.022800315 0.007202262 -0.026882464 0.015105563 0.0048766704 -0.024754705 -0.015097624 0.0022794735
0.020224482 0.04970531 -0.016549947 -0.02444189 -0.07519253 -0.008441284 -0.034803875 0.025960341
-0.024771454 0.05166778 0.026199663 -0.0038067333 -0.008389258 -0.0072109355 0.024033822 -0.025355557
0.02811677 -0.017054906 -0.037008483 -0.00045700843 -0.027145822 -0.011701391 -0.034727816 -0.00874254
0.028285652 -0.027859122 0.019491637 0.009779269 -0.027431838 0.0062922086 -0.015555048 0.0301317
0.06526627 0.010864217 0.014108703 0.06686027 -0.001460783 0.11358452 -0.021397332 0.012634864
00000000: 2802 223c 9299 94bc 70af a83c 02f4 f8bb
00000010: f48b a5bb b964 443e ceda f63c c80e 5e3b
00000020: df19 2abd 524f f4bc 0b6e 0b3d 1ef2 48bc
00000030: a44c 863b 0529 8e3c 6231 71bc 24f8 23bd
00000040: 08ee 763b 9692 ec3a 3062 35bd 967a 913c
00000050: bf0e d13b 305d 5bbd b7fd 913c e67d 09bd
00000060: 8309 6c3c a42b b83d 845e 28bb 1bbf adbc
00000070: 6eaf 913b 6ad7 9a3c 7524 1e3d 14b6 113c
00000080: b256 53bd ecce ee3c 89a8 293c 227a 6bbc
00000090: fbb7 223c 120d d03c 02c3 11bd 8185 a1bb
000000a0: 1a07 0cbd 8837 e1bc 786a b3bc b417 5dbc
000000b0: 2402 903d 6fc6 e0bc d4a8 f03c 2d24 813c
000000c0: 6fed 18bd e209 c43c 4087 34ba 063d 313c
000000d0: ea53 b73c 357a dcbb 185e 4bbb 1094 053d
000000e0: a476 a23a 3ddc bdbb f6c4 7d3c 9d3d 72bc
000000f0: 9ce9 bdbc b486 8fbc 160b 093d fd74 8fbd
00000100: aeb5 ff3a 796c c93d 5718 dbbc 21c6 04bd
00000110: a3dc 953c f291 063d 0b8c d23d 20f3 0ebb
00000120: d6b6 2fbc 3842 f0bc fc7e 8abb 1b3a 7b3d
00000130: d04d e4bc 6cd0 a93c 36fa a4bc 6d9b ebbb
00000140: bac7 babc f400 ec3b 9d38 dcbc 537d 773c
00000150: 7acc 9f3b 61ca cabc 065c 77bc 3863 153b
00000160: d0ad a53c cc97 4b3d c193 87bc 5c3a c8bc
00000170: 8bfe 99bd 504d 0abc 828e 0ebd c8aa d43c
00000180: 81ed cabc 98a1 533d ada0 d63c 637a 79bb
00000190: 1973 09bc b649 ecbb 94e2 c43c 75b6 cfbc
000001a0: 2455 e63c bbb6 8bbc 3596 17bd a29a efb9
000001b0: ea60 debc 31b7 3fbc c13e 0ebd df3c 0fbc
000001c0: 50b7 e73c d038 e4bc edac 9f3c 3a39 203c
000001d0: bcb8 e0bc df2e ce3b 9ada 7ebc c1d6 f63c
000001e0: 52aa 853d d4ff 313c 3028 673c 0aee 883d
000001f0: be77 bfba 009f e83d 7549 afbc 7602 4f3c

linear7.weight f4 [6, 128]
0.14547235 -0.08426495 0.034286816 0.44343153 0.060388032 0.19431795 0.20935977 -0.06231871
0.16790712 -0.014409903 0.041796613 0.17062306 0.05510969 0.051032286 -0.028220851 -0.05765603
-0.048830405 0.1532822 0.2799603 -0.07517686 -0.070263095 0.26152042 -0.032245964 -0.056305535
0.2271726 0.08819905 0.029533438 0.41743392 0.13175948 -0.02078689 0.55565107 -0.056745954
0.21319197 -0.041356374 0.21329184 -0.013765394 0.06626305 -0.04970717 0.06087624 0.16191906
0.039157595 0.041473508 0.09114851 -0.0002976379 0.3074618 0.057793885 0.45084 0.07945259
0.024069164 0.07529719 -0.065945536 0.07440827 0.21998926 0.009460114 0.14133254 0.0003181212
-0.056726348 0.057017703 0.023503905 -0.29087788 0.013993932 0.08101225 0.25029457 0.19939733
0.0064949924 0.5705672 0.27160233 0.063414976 -0.06962185 0.06138 0.05126585 0.02458369
0.07306324 0.026130114 0.071084835 0.3005421 -0.0662774 -0.013459208 0.035237446 0.17706136
-0.08394113 0.26028717 -0.05086516 0.2672304 0.31537312 0.057103194 0.21292889 0.17387915
-0.055525735 0.32588828 0.039056137 -0.049737096 0.19275846 -0.04954256 0.058405537 0.026738523
0.07841306 0.18443544 0.022585468 -0.07847275 0.022062145 0.036185354 0.06224347 0.15536684
0.05285762 0.030578548 -0.029810285 0.01699321 -0.05104078 0.09512693 0.07894819 0.3566786
0.016552947 -0.026767908 0.034071513 -0.022798894 0.030247662 0.19300988 0.010775378 -0.049582977
-0.056841403 0.14319064 0.0069397837 0.14572735 0.15109485 0.25547108 -0.07106301 -0.07488927
0.097099885 -0.018916862 0.028766744 -0.17941745 -0.080247566 0.17300437 0.49865317 -0.0045342837
0.09125671 0.031540558 -0.04065387 0.21300414 -0.003026518 0.043872125 0.029440515 -0.006765538
-0.07896158 0.13997915 0.24658939 0.046359368 0.019478139 0.2534529 0.067145966 -0.049012836
0.26144582 0.20503329 0.037340876 -0.3612251 0.27077323 -0.012469708 0.049912605 -0.0033873213
0.11987748 0.07991029 0.17287408 0.0031439061 -0.07484249 0.026174232 0.08685491 0.24397267
0.028039679 -0.04852343 0.039263725 0.027123557 0.38115016 0.056026407 -0.32949385 -0.039761137
-0.017691894 0.06488248 0.080098666 -0.028365068 0.0532592 0.096637756 0.14769262 0.08827278
-0.043284085 -0.069314666 -0.087358765 0.09804567 -0.04608236 -0.04903855 0.25258452 0.2621607
0.07828041 -0.066495284 0.296667 0.06837132 -0.045726843 0.0826417 0.19006224 -0.071773514
-0.038478445 0.02374776 0.02136262 0.34392115 0.069559015 0.022607626 -0.053396612 0.6193193
-0.08467031 0.43070546 -0.08233523 0.2420667 0.26178893 0.09568369 0.4222728 0.21192363
-0.025511524 0.34944558 -0.08563538 -0.08533306 0.05767878 0.03261312 -0.07688701 -0.02784691
-0.047054805 0.6252424 -0.04317323 -0.06327302 0.028891759 0.047456257 0.0465687 0.15311214
-0.0273721 -0.0034609768 -0.0054535083 0.024340007 0.07475169 -0.048966046 0.0039489153 0.2585188
0.029309165 -0.075074606 0.0026512416 -0.06497569 -0.055465393 0.45831475 -0.060687717 -0.045784883
0.08796025 0.4756086 0.053755812 0.0049323174 0.66486573 0.16089548 0.02066303 0.08632686
00000000: b4f6 143e 1a93 acbd 5570 0c3d 7509 e33e
00000010: 7159 773d 49fb 463e 6862 563e e741 7fbd
00000020: d8ef 2b3e 8417 6cbc ed32 2b3d d0b7 2e3e
00000030: b3ba 613d 3b07 513d 6a2f e7bc bb28 6cbd
00000040: 6402 48bd 02f6 1c3e f556 8f3e 53f6 99bd
00000050: 19e6 8fbd 01e6 853e 5814 04bd a2a0 66bd
00000060: ef9f 683e b4a1 b43d 1cf0 f13c e6b9 d53e
00000070: f5eb 063e 4549 aabc 263f 0e3f 726e 68bd
00000080: ff4e 5a3e 4d65 29bd 2d69 5a3e 3f88 61bc
00000090: ecb4 873d bf99 4bbd 5d59 793d 1cce 253e
000000a0: b763 203d 20e0 293d 12ac ba3d 480c 9cb9
000000b0: a26b 9d3e 48b9 6c3d 80d4 e63e 0ab8 a23d
000000c0: b22c c53c 6a35 9a3d 740e 87bd 5d63 983d
000000d0: dd44 613e 98fe 1a3c 7ab9 103e 81c9 a639
000000e0: e359 68bd 658b 693d 438b c03c f2ed 94be
000000f0: ce46 653c c0e9 a53d 9c26 803e d02e 4c3e
00000100: f2d3 d43b b110 123f 760f 8b3e b6df 813d
00000110: e795 8ebd 9869 7b3d 24fc 513d bc63 c93c
00000120: 2ea2 953d d20e d63c ed94 913d a7e0 993e
00000130: 72bc 87bd 0384 5cbc 2455 103d 934f 353e
00000140: 54e9 abbd 5c44 853e fc57 50bd 6cd2 883e
00000150: 9678 a13e 0ae5 693d 080a 5a3e 600d 323e
00000160: f46e 63bd d4da a63e 54f9 1f3d 20b9 4bbd
00000170: 7962 453e 24ed 4abd a53a 6f3d bf0a db3c
00000180: 0797 a03d a5dc 3c3e 2905 b93c 52b6 a0bd
00000190: acbb b43c 1837 143d 02f3 7e3d 7c18 1f3e
000001a0: 3b81 583d dd7f fa3c b334 f4bc 5835 8b3c
000001b0: 2310 51bd e8d1 c23d 97af a13d 949e b63e
000001c0: 0c9a 873c 5f48 dbbc 928e 0b3d bfc4 babc
000001d0: f2c9 f73c 62a4 453e 368b 303c 8517 4bbd
000001e0: 88d2 68bd 91a0 123e 2067 e33b 8d39 153e
000001f0: 9cb8 1a3e 1bcd 823e 7c89 91bd 8c5f 99bd
00000200: 4edc c63d 89f7 9abc 3ca8 eb3c 35b9 37be
00000210: d658 a4bd 0f28 313e 784f ff3e 5494 94bb
00000220: cce4 ba3d ac30 013d ac84 26bd c21d 5a3e
00000230: 8c58 46bb 42b3 333d 3c2d f13c 72b1 ddbb
00000240: 9cb6 a1bd b256 0f3e ee81 7c3e 52e3 3d3d
00000250: 9e90 9f3c 94c4 813e d383 893d afc1 48bd
00000260: 3adc 853e 3ff4 513e bff2 183d 7ff2 b8be
00000270: caa2 8a3e bf4d 4cbc 2971 4c3d d2fd 5dbb
00000280: 5382 f53d 02a8 a33d e705 313e fe09 4e3b
00000290: 0547 99bd 586b d63c fde0 b13d f9d3 793e
000002a0: 78b3 e53c 81c0 46bd 00d3 203d 3932 de3c
000002b0: 1d26 c33e f27b 653d 6bb3 a8be 93dc 22bd
000002c0: 97ee 90bc 1be1 843d c50a a43d dc5d e8bc
000002d0: 5226 5a3d 04ea c53d bc3c 173e 5cc8 b43d
000002e0: a74a 31bd d9f4 8dbd 27e9 b2bd 2bcc c83d
000002f0: dbc0 3cbd a6dc 48bd c252 813e ed39 863e
00000300: 7b51 a03d ae2e 88bd bde4 973e 4306 8c3d
00000310: 124c 3bbd 0d40 a93d ad9f 423e fefd 92bd
00000320: 939b 1dbd aa8a c23c a900 af3c 6f16 b03e
00000330: f574 8e3d a133 b93c 68b6 5abd b68b 1e3f
00000340: a167 adbd 6d85 dc3e 609f a8bd 55e0 773e
00000350: 3309 863e cff5 c33d 2434 d83e 8202 593e
00000360: 8bfd d0bc 88ea b23e 9a61 afbd 19c3 aebd
00000370: 9640 6c3d 5695 053d f076 9dbd 341f e4bc
00000380: 8abc 40bd e30f 203f 6ad6 30bd 4995 81bd
00000390: 69ae ec3c 7e61 423d d2be 3e3d 6ec9 1c3e
000003a0: 743b e0bc 8ed1 62bb 58b3 b2bb b264 c73c
000003b0: 6a17 993d 9f90 48bd e765 813b 935c 843e
000003c0: c619 f03c b7c0 99bd 74c0 2d3b f911 85bd
000003d0: ae2f 63bd 3ba8 ea3e af93 78bd ee88 3bbd
000003e0: 8124 b43d f882 f33e 0e2f 5c3d 479f a13b
000003f0: a434 2a3f c9c1 243e 8445 a93c 23cc b03d

linear7.bias f4 [6]
0.2827077 0.21193129 0.08548247 0.13373666 0.3234669 0.2107745
00000000: 10bf 903e 8404 593e 6f11 af3d 43f2 083e
00000010: 749d a53e 45d5 573e

onnx::MatMul_89 f4 [8, 128]
0.37215367 -0.101450875 0.20272508 -0.39721555 -0.5287434 -0.10061061 0.26703528 -0.34620747
-0.62632465 -0.1782807 0.5709776 -0.11620103 -0.2855478 0.19532147 0.07564825 -0.02079612
0.23377001 0.16541679 0.0038029824 0.115358084 0.19339822 0.057697605 -0.02051593 -0.3489058
-0.24055395 0.060503185 0.06418416 -0.45621836 -0.30532852 -0.005431352 0.027094321 -0.3930915
0.03372664 -0.0076997895 0.2834949 -0.028839158 -0.48493746 -0.22829844 -0.30891195 0.2638445
-0.4221221 0.17409131 -0.069230795 0.50393885 -0.32132584 0.39838272 -0.40188205 0.01353444
0.14714305 -0.20372894 -0.13071734 -0.22330907 -0.11616818 0.018842427 0.152186 -0.33909714
-0.3944702 -0.009240344 0.25798026 -0.23718351 0.110770315 0.07136384 -0.15599237 -0.32929024
-0.34605348 -0.14640673 -0.052568045 -0.32824314 0.20873079 -0.35793832 -0.2805639 0.12799418
0.30729622 -0.53288716 -0.025276944 0.10272527 -0.2152178 0.06506635 0.026089996 0.2180269
-0.047904417 0.2651818 -0.45037723 -0.25212252 0.008788625 0.056240857 -0.35761225 -0.39133286
-0.15891653 -0.3210593 -0.23311248 0.09307539 -0.20328474 -0.056634977 0.07177031 -0.47270513
0.00094717776 0.040438056 -0.5702809 -0.04123175 0.55199176 0.20510207 -0.4727638 -0.090149246
-0.52758926 -0.52399147 0.15343997 -0.08370483 0.46164566 -0.3424917 -0.13363174 0.18226987
-0.3114979 0.2166161 0.082622595 -0.1023478 0.17660081 -0.39032418 0.13670848 0.18038276
0.5328124 0.12210253 -0.08280985 0.17215642 -0.295034 -0.38160303 -0.33809105 -0.058108144
-0.07019163 -0.028736401 0.036782343 -0.30288157 0.19525264 -0.39057508 0.40817356 0.1976506
0.11778737 -0.0954698 0.061949126 0.10098458 0.037914827 0.019428816 -0.29677266 -0.14080751
-0.14899862 0.09471205 -0.40527064 0.086134195 -0.41242355 -0.060985133 0.0075688087 -0.101278044
-0.21856323 0.016447514 -0.23527272 -0.4888333 -0.35848412 0.15957633 0.4858114 -0.2498577
-0.26946306 -0.2526872 0.53489417 -0.2733183 -0.39703467 0.067087695 -0.4745637 -0.089311995
0.1908216 -0.34635398 0.31049648 0.29488948 0.3452237 0.13225156 0.1761578 0.2531715
-0.02656159 0.040459614 -0.022941971 0.03296315 -0.3560379 -0.4740887 0.43625665 0.18432505
-0.4506051 -0.04692093 0.46450198 -0.08460667 -0.10385868 0.017309159 0.11784556 -0.14694072
-0.42247885 -0.006660074 0.27932072 0.21540457 -0.18398418 -0.35201123 -0.22387503 0.19228485
0.20392315 -0.06010193 0.01317258 -0.10960929 -0.07675879 -0.049680494 -0.31814846 0.024251249
0.10916178 0.3129687 -0.4146802 -0.25429046 0.15338281 -0.28488863 -0.5162048 0.07877868
-0.45458165 0.2103528 0.07407048 -0.0809164 -0.29389763 -0.020055642 0.035226762 0.043044332
0.18159191 -0.17602913 -0.24403825 0.12776913 0.12136283 0.18519741 -0.043652188 0.04795939
0.16260299 -0.38662946 -0.29465848 -0.020520955 -0.18676563 -0.121451646 0.031526055 -0.13468134
0.21066491 0.0779096 0.04551305 0.041020878 -0.01744954 0.17092133 0.23261888 0.31161073
0.3930216 0.007376671 0.2316228 -0.3074048 -0.20281793 -0.4546455 0.015258065 0.29569328
00000000: ed8a be3e 7ac5 cfbd 2a97 4f3e d65f cbbe
00000010: ba5b 07bf ef0c cebd d9b8 883e 1b42 b1be
00000020: d056 20bf 378f 36be 972b 123f cefa edbd
00000030: 5233 92be 5a02 483e 78ed 9a3d a05c aabc
00000040: 6861 6f3e 0563 293e 753b 793b dc40 ec3d
00000050: 2f0a 463e 5354 6c3d 0611 a8bc c8a3 b2be
00000060: c653 76be 30d2 773d fc72 833d 7495 e9be
00000070: 0554 9cbe 7cf9 b1bb e9f4 dd3c 4a43 c9be
00000080: f224 0a3d 844e fcbb 3e26 913e 1940 ecbc
00000090: b949 f8be 11c7 69be b529 9ebe a016 873e
000000a0: 6320 d8be fe44 323e e0c8 8dbd 2302 013f
000000b0: d284 a4be d2f8 cb3e 7cc3 cdbe 8ebf 5d3c
000000c0: abac 163e 529e 50be c4da 05be 22ab 64be
000000d0: 95e9 edbd 6f5b 9a3c a6d6 1b3e 249e adbe
000000e0: 00f8 c9be d064 17bc fd15 843e 3ce0 72be
000000f0: 8cdb e23d 3427 923d 77bc 1fbe bb98 a8be
00000100: ec2d b1be a5eb 15be 9751 57bd 7c0f a8be
00000110: 86bd 553e b143 b7be 12a6 8fbe e810 033e
00000120: ee55 9d3e 4b6b 08bf 9811 cfbc a061 d23d
00000130: 0e62 5cbe 8241 853d b0ba d53c 7242 5f3e
00000140: 6c37 44bd e9c5 873e d897 e6be 3416 81be
00000150: 2afe 0f3c d05c 663d f418 b7be c85c c8be
00000160: 04bb 22be e261 a4be 0ab5 6ebe 4f9e be3d
00000170: e029 50be 14fa 67bd 50fc 923d 6806 f2be
00000180: 064c 783a 60a2 253d eefd 11bf a0e2 28bd
00000190: 554f 0d3f 4706 523e 190e f2be 2ba0 b8bd
000001a0: 1710 07bf 4e24 06bf 5e1f 1d3e 706d abbd
000001b0: d25c ec3e 125b afbe c2d6 08be f4a4 3a3e
000001c0: a77c 9fbe 9cd0 5d3e 0936 a93d b99b d1bd
000001d0: d8d6 343e 92d8 c7be 4ffd 0b3e 42b6 383e
000001e0: 6566 083f e410 fa3d 3698 a9bd c649 303e
000001f0: b20e 97be 7961 c3be 451a adbe ce02 6ebd
00000200: a1c0 8fbd 9a68 ebbc 15a9 163d 4b13 9bbe
00000210: 4ff0 473e 75f9 c7be 20fc d03e eb64 4a3e
00000220: 813a f13d ac85 c3bd 5ebe 7d3d 01d1 ce3d
00000230: 944c 1b3d 2e29 9f3c 96f2 97be d82f 10be
00000240: 1893 18be 64f8 c13d a27f cfbe 2067 b03d
00000250: 2e29 d3be 8ccb 79bd c503 f83b dd6a cfbd
00000260: 0acf 5fbe f0bc 863c 55eb 70be 5c48 fabe
00000270: 3b8b b7be fa67 233e 46bc f83e b2da 7fbe
00000280: 10f7 89be 3760 81be d3ee 083f 60f0 8bbe
00000290: 2148 cbbe 4665 893d 03fa f2be 35e9 b6bd
000002a0: bd66 433e 4f55 b1be 65f9 9e3e c1fb 963e
000002b0: 29c1 b03e f46c 073e b662 343e b29f 813e
000002c0: b197 d9bc fbb8 253d cdf0 bbbc 5e04 073d
000002d0: 9a4a b6be c1bb f2be 085d df3e b5bf 3c3e
000002e0: b6b5 e6be 2930 40bd 34d3 ed3e 4346 adbd
000002f0: dcb3 d4bd f0cb 8d3c 0359 f13d a177 16be
00000300: 264f d8be c03c dabb 2003 8f3e 0493 5c3e
00000310: 5966 3cbe d13a b4be 7f3f 65be 52e6 443e
00000320: 3bd1 503e 712d 76bd ced1 573c d67a e0bd
00000330: b633 9dbd c67d 4bbd 5be4 a2be 8eaa c63c
00000340: 3690 df3d 6f3d a03e f750 d4be 5c32 82be
00000350: 6210 1d3e ecdc 91be ff25 04bf b756 a13d
00000360: edbe e8be b966 573e 44b2 973d 7fb7 a5bd
00000370: c079 96be bb4b a4bc f049 103d 414f 303d
00000380: 3bf3 393e fb40 34be 2ae5 79be e9d5 023e
00000390: 138d f83d 64a4 3d3e a3cc 32bd 1171 443d
000003a0: 6681 263e 4cf4 c5be 7add 96be 901b a8bc
000003b0: 7d3f 3fbe a4bb f8bd 7721 013d e8e9 09be
000003c0: 8bb8 573e 128f 9f3d e46b 3a3d 8205 283d
000003d0: 56f2 8ebc 0006 2f3e a533 6e3e 718b 9f3e
000003e0: 213a c93e 00b8 f13b 872e 6d3e 2964 9dbe
000003f0: 81af 4fbe 4cc7 e8be f7fc 793c 1c65 973e
